<?xml version="1.0"?>
<net name="torch_jit" version="11">
	<layers>
		<layer id="0" name="image" type="Parameter" version="opset1">
			<data shape="1,416,416,3" element_type="u8" />
			<output>
				<port id="0" precision="U8" names="image">
					<dim>1</dim>
					<dim>416</dim>
					<dim>416</dim>
					<dim>3</dim>
					<rt_info>
						<attribute name="layout" version="0" layout="[N,H,W,C]" />
					</rt_info>
				</port>
			</output>
		</layer>
		<layer id="1" name="Convert_8658" type="Convert" version="opset1">
			<data destination_type="f32" />
			<input>
				<port id="0" precision="U8">
					<dim>1</dim>
					<dim>416</dim>
					<dim>416</dim>
					<dim>3</dim>
				</port>
			</input>
			<output>
				<port id="1" precision="FP32">
					<dim>1</dim>
					<dim>416</dim>
					<dim>416</dim>
					<dim>3</dim>
				</port>
			</output>
		</layer>
		<layer id="2" name="Constant_8659" type="Const" version="opset1">
			<data element_type="i64" shape="" offset="0" size="8" />
			<output>
				<port id="0" precision="I64" />
			</output>
		</layer>
		<layer id="3" name="Constant_8660" type="Const" version="opset1">
			<data element_type="i64" shape="" offset="8" size="8" />
			<output>
				<port id="0" precision="I64" />
			</output>
		</layer>
		<layer id="4" name="Constant_8661" type="Const" version="opset1">
			<data element_type="i64" shape="" offset="8" size="8" />
			<output>
				<port id="0" precision="I64" />
			</output>
		</layer>
		<layer id="5" name="Range_8662" type="Range" version="opset4">
			<data output_type="i32" />
			<input>
				<port id="0" precision="I64" />
				<port id="1" precision="I64" />
				<port id="2" precision="I64" />
			</input>
			<output>
				<port id="3" precision="I32">
					<dim>3</dim>
				</port>
			</output>
		</layer>
		<layer id="6" name="Constant_8663" type="Const" version="opset1">
			<data element_type="i32" shape="1" offset="16" size="4" />
			<output>
				<port id="0" precision="I32">
					<dim>1</dim>
				</port>
			</output>
		</layer>
		<layer id="7" name="Gather_8664" type="Gather" version="opset8">
			<data batch_dims="0" />
			<input>
				<port id="0" precision="FP32">
					<dim>1</dim>
					<dim>416</dim>
					<dim>416</dim>
					<dim>3</dim>
				</port>
				<port id="1" precision="I32">
					<dim>3</dim>
				</port>
				<port id="2" precision="I32">
					<dim>1</dim>
				</port>
			</input>
			<output>
				<port id="3" precision="FP32">
					<dim>1</dim>
					<dim>416</dim>
					<dim>416</dim>
					<dim>3</dim>
				</port>
			</output>
		</layer>
		<layer id="8" name="Constant_8665" type="Const" version="opset1">
			<data element_type="f32" shape="1, 1, 1, 3" offset="20" size="12" />
			<output>
				<port id="0" precision="FP32">
					<dim>1</dim>
					<dim>1</dim>
					<dim>1</dim>
					<dim>3</dim>
				</port>
			</output>
		</layer>
		<layer id="9" name="Subtract_8666" type="Subtract" version="opset1">
			<data auto_broadcast="numpy" />
			<rt_info>
				<attribute name="preprocessing" version="0" />
			</rt_info>
			<input>
				<port id="0" precision="FP32">
					<dim>1</dim>
					<dim>416</dim>
					<dim>416</dim>
					<dim>3</dim>
				</port>
				<port id="1" precision="FP32">
					<dim>1</dim>
					<dim>1</dim>
					<dim>1</dim>
					<dim>3</dim>
				</port>
			</input>
			<output>
				<port id="2" precision="FP32">
					<dim>1</dim>
					<dim>416</dim>
					<dim>416</dim>
					<dim>3</dim>
				</port>
			</output>
		</layer>
		<layer id="10" name="Constant_8667" type="Const" version="opset1">
			<data element_type="f32" shape="1, 1, 1, 3" offset="32" size="12" />
			<output>
				<port id="0" precision="FP32">
					<dim>1</dim>
					<dim>1</dim>
					<dim>1</dim>
					<dim>3</dim>
				</port>
			</output>
		</layer>
		<layer id="11" name="Divide_8668" type="Divide" version="opset1">
			<data auto_broadcast="numpy" m_pythondiv="true" />
			<rt_info>
				<attribute name="preprocessing" version="0" />
			</rt_info>
			<input>
				<port id="0" precision="FP32">
					<dim>1</dim>
					<dim>416</dim>
					<dim>416</dim>
					<dim>3</dim>
				</port>
				<port id="1" precision="FP32">
					<dim>1</dim>
					<dim>1</dim>
					<dim>1</dim>
					<dim>3</dim>
				</port>
			</input>
			<output>
				<port id="2" precision="FP32">
					<dim>1</dim>
					<dim>416</dim>
					<dim>416</dim>
					<dim>3</dim>
				</port>
			</output>
		</layer>
		<layer id="12" name="Constant_8669" type="Const" version="opset1">
			<data element_type="i64" shape="4" offset="44" size="32" />
			<output>
				<port id="0" precision="I64">
					<dim>4</dim>
				</port>
			</output>
		</layer>
		<layer id="13" name="Transpose_8670" type="Transpose" version="opset1">
			<input>
				<port id="0" precision="FP32">
					<dim>1</dim>
					<dim>416</dim>
					<dim>416</dim>
					<dim>3</dim>
				</port>
				<port id="1" precision="I64">
					<dim>4</dim>
				</port>
			</input>
			<output>
				<port id="2" precision="FP32">
					<dim>1</dim>
					<dim>3</dim>
					<dim>416</dim>
					<dim>416</dim>
				</port>
			</output>
		</layer>
		<layer id="14" name="Constant_63244" type="Const" version="opset1">
			<data element_type="f32" shape="1, 1, 1, 1" offset="76" size="4" />
			<output>
				<port id="0" precision="FP32">
					<dim>1</dim>
					<dim>1</dim>
					<dim>1</dim>
					<dim>1</dim>
				</port>
			</output>
		</layer>
		<layer id="15" name="Constant_63245" type="Const" version="opset1">
			<data element_type="f32" shape="1, 1, 1, 1" offset="80" size="4" />
			<output>
				<port id="0" precision="FP32">
					<dim>1</dim>
					<dim>1</dim>
					<dim>1</dim>
					<dim>1</dim>
				</port>
			</output>
		</layer>
		<layer id="16" name="Constant_63246" type="Const" version="opset1">
			<data element_type="f32" shape="1, 1, 1, 1" offset="76" size="4" />
			<output>
				<port id="0" precision="FP32">
					<dim>1</dim>
					<dim>1</dim>
					<dim>1</dim>
					<dim>1</dim>
				</port>
			</output>
		</layer>
		<layer id="17" name="Constant_63247" type="Const" version="opset1">
			<data element_type="f32" shape="1, 1, 1, 1" offset="80" size="4" />
			<output>
				<port id="0" precision="FP32">
					<dim>1</dim>
					<dim>1</dim>
					<dim>1</dim>
					<dim>1</dim>
				</port>
			</output>
		</layer>
		<layer id="18" name="PPQ_Operation_1" type="FakeQuantize" version="opset1">
			<data levels="256" auto_broadcast="numpy" />
			<input>
				<port id="0" precision="FP32">
					<dim>1</dim>
					<dim>3</dim>
					<dim>416</dim>
					<dim>416</dim>
				</port>
				<port id="1" precision="FP32">
					<dim>1</dim>
					<dim>1</dim>
					<dim>1</dim>
					<dim>1</dim>
				</port>
				<port id="2" precision="FP32">
					<dim>1</dim>
					<dim>1</dim>
					<dim>1</dim>
					<dim>1</dim>
				</port>
				<port id="3" precision="FP32">
					<dim>1</dim>
					<dim>1</dim>
					<dim>1</dim>
					<dim>1</dim>
				</port>
				<port id="4" precision="FP32">
					<dim>1</dim>
					<dim>1</dim>
					<dim>1</dim>
					<dim>1</dim>
				</port>
			</input>
			<output>
				<port id="5" precision="FP32" names="PPQ_Variable_120">
					<dim>1</dim>
					<dim>3</dim>
					<dim>416</dim>
					<dim>416</dim>
				</port>
			</output>
		</layer>
		<layer id="19" name="onnx::Conv_1533" type="Const" version="opset1">
			<data element_type="i8" shape="24, 3, 3, 3" offset="84" size="648" />
			<output>
				<port id="0" precision="I8" names="onnx::Conv_1533">
					<dim>24</dim>
					<dim>3</dim>
					<dim>3</dim>
					<dim>3</dim>
				</port>
			</output>
		</layer>
		<layer id="20" name="Convert_1596" type="Convert" version="opset1">
			<data destination_type="f32" />
			<input>
				<port id="0" precision="I8">
					<dim>24</dim>
					<dim>3</dim>
					<dim>3</dim>
					<dim>3</dim>
				</port>
			</input>
			<output>
				<port id="1" precision="FP32">
					<dim>24</dim>
					<dim>3</dim>
					<dim>3</dim>
					<dim>3</dim>
				</port>
			</output>
		</layer>
		<layer id="21" name="Reshape_1590" type="Const" version="opset1">
			<data element_type="f32" shape="24, 1, 1, 1" offset="732" size="96" />
			<output>
				<port id="0" precision="FP32">
					<dim>24</dim>
					<dim>1</dim>
					<dim>1</dim>
					<dim>1</dim>
				</port>
			</output>
		</layer>
		<layer id="22" name="PPQ_Operation_2" type="Multiply" version="opset1">
			<data auto_broadcast="numpy" />
			<input>
				<port id="0" precision="FP32">
					<dim>24</dim>
					<dim>3</dim>
					<dim>3</dim>
					<dim>3</dim>
				</port>
				<port id="1" precision="FP32">
					<dim>24</dim>
					<dim>1</dim>
					<dim>1</dim>
					<dim>1</dim>
				</port>
			</input>
			<output>
				<port id="2" precision="FP32" names="PPQ_Variable_126">
					<dim>24</dim>
					<dim>3</dim>
					<dim>3</dim>
					<dim>3</dim>
				</port>
			</output>
		</layer>
		<layer id="23" name="/backbone/conv1/conv1.0/Conv/WithoutBiases" type="Convolution" version="opset1">
			<data strides="2, 2" dilations="1, 1" pads_begin="1, 1" pads_end="1, 1" auto_pad="explicit" />
			<input>
				<port id="0" precision="FP32">
					<dim>1</dim>
					<dim>3</dim>
					<dim>416</dim>
					<dim>416</dim>
				</port>
				<port id="1" precision="FP32">
					<dim>24</dim>
					<dim>3</dim>
					<dim>3</dim>
					<dim>3</dim>
				</port>
			</input>
			<output>
				<port id="2" precision="FP32">
					<dim>1</dim>
					<dim>24</dim>
					<dim>208</dim>
					<dim>208</dim>
				</port>
			</output>
		</layer>
		<layer id="24" name="Reshape_3593" type="Const" version="opset1">
			<data element_type="f32" shape="1, 24, 1, 1" offset="828" size="96" />
			<output>
				<port id="0" precision="FP32">
					<dim>1</dim>
					<dim>24</dim>
					<dim>1</dim>
					<dim>1</dim>
				</port>
			</output>
		</layer>
		<layer id="25" name="/backbone/conv1/conv1.0/Conv" type="Add" version="opset1">
			<data auto_broadcast="numpy" />
			<input>
				<port id="0" precision="FP32">
					<dim>1</dim>
					<dim>24</dim>
					<dim>208</dim>
					<dim>208</dim>
				</port>
				<port id="1" precision="FP32">
					<dim>1</dim>
					<dim>24</dim>
					<dim>1</dim>
					<dim>1</dim>
				</port>
			</input>
			<output>
				<port id="2" precision="FP32" names="PPQ_Variable_129">
					<dim>1</dim>
					<dim>24</dim>
					<dim>208</dim>
					<dim>208</dim>
				</port>
			</output>
		</layer>
		<layer id="26" name="Constant_63248" type="Const" version="opset1">
			<data element_type="f32" shape="1, 1, 1, 1" offset="924" size="4" />
			<output>
				<port id="0" precision="FP32">
					<dim>1</dim>
					<dim>1</dim>
					<dim>1</dim>
					<dim>1</dim>
				</port>
			</output>
		</layer>
		<layer id="27" name="Constant_63249" type="Const" version="opset1">
			<data element_type="f32" shape="1, 1, 1, 1" offset="928" size="4" />
			<output>
				<port id="0" precision="FP32">
					<dim>1</dim>
					<dim>1</dim>
					<dim>1</dim>
					<dim>1</dim>
				</port>
			</output>
		</layer>
		<layer id="28" name="Constant_63250" type="Const" version="opset1">
			<data element_type="f32" shape="1, 1, 1, 1" offset="924" size="4" />
			<output>
				<port id="0" precision="FP32">
					<dim>1</dim>
					<dim>1</dim>
					<dim>1</dim>
					<dim>1</dim>
				</port>
			</output>
		</layer>
		<layer id="29" name="Constant_63251" type="Const" version="opset1">
			<data element_type="f32" shape="1, 1, 1, 1" offset="928" size="4" />
			<output>
				<port id="0" precision="FP32">
					<dim>1</dim>
					<dim>1</dim>
					<dim>1</dim>
					<dim>1</dim>
				</port>
			</output>
		</layer>
		<layer id="30" name="PPQ_Operation_4" type="FakeQuantize" version="opset1">
			<data levels="256" auto_broadcast="numpy" />
			<input>
				<port id="0" precision="FP32">
					<dim>1</dim>
					<dim>24</dim>
					<dim>208</dim>
					<dim>208</dim>
				</port>
				<port id="1" precision="FP32">
					<dim>1</dim>
					<dim>1</dim>
					<dim>1</dim>
					<dim>1</dim>
				</port>
				<port id="2" precision="FP32">
					<dim>1</dim>
					<dim>1</dim>
					<dim>1</dim>
					<dim>1</dim>
				</port>
				<port id="3" precision="FP32">
					<dim>1</dim>
					<dim>1</dim>
					<dim>1</dim>
					<dim>1</dim>
				</port>
				<port id="4" precision="FP32">
					<dim>1</dim>
					<dim>1</dim>
					<dim>1</dim>
					<dim>1</dim>
				</port>
			</input>
			<output>
				<port id="5" precision="FP32" names="/backbone/conv1/conv1.0/Conv_output_0">
					<dim>1</dim>
					<dim>24</dim>
					<dim>208</dim>
					<dim>208</dim>
				</port>
			</output>
		</layer>
		<layer id="31" name="Constant_3673" type="Const" version="opset1">
			<data element_type="f32" shape="1" offset="932" size="4" />
			<output>
				<port id="0" precision="FP32">
					<dim>1</dim>
				</port>
			</output>
		</layer>
		<layer id="32" name="/backbone/conv1/conv1.2/LeakyRelu" type="PReLU" version="opset1">
			<input>
				<port id="0" precision="FP32">
					<dim>1</dim>
					<dim>24</dim>
					<dim>208</dim>
					<dim>208</dim>
				</port>
				<port id="1" precision="FP32">
					<dim>1</dim>
				</port>
			</input>
			<output>
				<port id="2" precision="FP32" names="PPQ_Variable_135">
					<dim>1</dim>
					<dim>24</dim>
					<dim>208</dim>
					<dim>208</dim>
				</port>
			</output>
		</layer>
		<layer id="33" name="Constant_63252" type="Const" version="opset1">
			<data element_type="f32" shape="1, 1, 1, 1" offset="924" size="4" />
			<output>
				<port id="0" precision="FP32">
					<dim>1</dim>
					<dim>1</dim>
					<dim>1</dim>
					<dim>1</dim>
				</port>
			</output>
		</layer>
		<layer id="34" name="Constant_63253" type="Const" version="opset1">
			<data element_type="f32" shape="1, 1, 1, 1" offset="928" size="4" />
			<output>
				<port id="0" precision="FP32">
					<dim>1</dim>
					<dim>1</dim>
					<dim>1</dim>
					<dim>1</dim>
				</port>
			</output>
		</layer>
		<layer id="35" name="Constant_63254" type="Const" version="opset1">
			<data element_type="f32" shape="1, 1, 1, 1" offset="924" size="4" />
			<output>
				<port id="0" precision="FP32">
					<dim>1</dim>
					<dim>1</dim>
					<dim>1</dim>
					<dim>1</dim>
				</port>
			</output>
		</layer>
		<layer id="36" name="Constant_63255" type="Const" version="opset1">
			<data element_type="f32" shape="1, 1, 1, 1" offset="928" size="4" />
			<output>
				<port id="0" precision="FP32">
					<dim>1</dim>
					<dim>1</dim>
					<dim>1</dim>
					<dim>1</dim>
				</port>
			</output>
		</layer>
		<layer id="37" name="PPQ_Operation_6" type="FakeQuantize" version="opset1">
			<data levels="256" auto_broadcast="numpy" />
			<input>
				<port id="0" precision="FP32">
					<dim>1</dim>
					<dim>24</dim>
					<dim>208</dim>
					<dim>208</dim>
				</port>
				<port id="1" precision="FP32">
					<dim>1</dim>
					<dim>1</dim>
					<dim>1</dim>
					<dim>1</dim>
				</port>
				<port id="2" precision="FP32">
					<dim>1</dim>
					<dim>1</dim>
					<dim>1</dim>
					<dim>1</dim>
				</port>
				<port id="3" precision="FP32">
					<dim>1</dim>
					<dim>1</dim>
					<dim>1</dim>
					<dim>1</dim>
				</port>
				<port id="4" precision="FP32">
					<dim>1</dim>
					<dim>1</dim>
					<dim>1</dim>
					<dim>1</dim>
				</port>
			</input>
			<output>
				<port id="5" precision="FP32" names="/backbone/conv1/conv1.2/LeakyRelu_output_0">
					<dim>1</dim>
					<dim>24</dim>
					<dim>208</dim>
					<dim>208</dim>
				</port>
			</output>
		</layer>
		<layer id="38" name="/backbone/maxpool/MaxPool" type="MaxPool" version="opset8">
			<data strides="2, 2" dilations="1, 1" pads_begin="1, 1" pads_end="1, 1" kernel="3, 3" rounding_type="floor" auto_pad="explicit" index_element_type="i64" axis="0" />
			<input>
				<port id="0" precision="FP32">
					<dim>1</dim>
					<dim>24</dim>
					<dim>208</dim>
					<dim>208</dim>
				</port>
			</input>
			<output>
				<port id="1" precision="FP32" names="/backbone/maxpool/MaxPool_output_0">
					<dim>1</dim>
					<dim>24</dim>
					<dim>104</dim>
					<dim>104</dim>
				</port>
				<port id="2" precision="I64">
					<dim>1</dim>
					<dim>24</dim>
					<dim>104</dim>
					<dim>104</dim>
				</port>
			</output>
		</layer>
		<layer id="39" name="onnx::Conv_1536" type="Const" version="opset1">
			<data element_type="i8" shape="24, 1, 3, 3" offset="936" size="216" />
			<output>
				<port id="0" precision="I8" names="onnx::Conv_1536">
					<dim>24</dim>
					<dim>1</dim>
					<dim>3</dim>
					<dim>3</dim>
				</port>
			</output>
		</layer>
		<layer id="40" name="Convert_1614" type="Convert" version="opset1">
			<data destination_type="f32" />
			<input>
				<port id="0" precision="I8">
					<dim>24</dim>
					<dim>1</dim>
					<dim>3</dim>
					<dim>3</dim>
				</port>
			</input>
			<output>
				<port id="1" precision="FP32">
					<dim>24</dim>
					<dim>1</dim>
					<dim>3</dim>
					<dim>3</dim>
				</port>
			</output>
		</layer>
		<layer id="41" name="Reshape_1608" type="Const" version="opset1">
			<data element_type="f32" shape="24, 1, 1, 1" offset="1152" size="96" />
			<output>
				<port id="0" precision="FP32">
					<dim>24</dim>
					<dim>1</dim>
					<dim>1</dim>
					<dim>1</dim>
				</port>
			</output>
		</layer>
		<layer id="42" name="PPQ_Operation_7" type="Multiply" version="opset1">
			<data auto_broadcast="numpy" />
			<input>
				<port id="0" precision="FP32">
					<dim>24</dim>
					<dim>1</dim>
					<dim>3</dim>
					<dim>3</dim>
				</port>
				<port id="1" precision="FP32">
					<dim>24</dim>
					<dim>1</dim>
					<dim>1</dim>
					<dim>1</dim>
				</port>
			</input>
			<output>
				<port id="2" precision="FP32" names="PPQ_Variable_141">
					<dim>24</dim>
					<dim>1</dim>
					<dim>3</dim>
					<dim>3</dim>
				</port>
			</output>
		</layer>
		<layer id="43" name="Constant_3730" type="Const" version="opset1">
			<data element_type="i64" shape="1" offset="1248" size="8" />
			<output>
				<port id="0" precision="I64">
					<dim>1</dim>
				</port>
			</output>
		</layer>
		<layer id="44" name="ShapeOf_3731" type="ShapeOf" version="opset3">
			<data output_type="i64" />
			<input>
				<port id="0" precision="FP32">
					<dim>24</dim>
					<dim>1</dim>
					<dim>3</dim>
					<dim>3</dim>
				</port>
			</input>
			<output>
				<port id="1" precision="I64">
					<dim>4</dim>
				</port>
			</output>
		</layer>
		<layer id="45" name="Constant_3728" type="Const" version="opset1">
			<data element_type="i64" shape="" offset="1256" size="8" />
			<output>
				<port id="0" precision="I64" />
			</output>
		</layer>
		<layer id="46" name="Constant_3729" type="Const" version="opset1">
			<data element_type="i64" shape="2" offset="1264" size="16" />
			<output>
				<port id="0" precision="I64">
					<dim>2</dim>
				</port>
			</output>
		</layer>
		<layer id="47" name="VariadicSplit_3732" type="VariadicSplit" version="opset1">
			<input>
				<port id="0" precision="I64">
					<dim>4</dim>
				</port>
				<port id="1" precision="I64" />
				<port id="2" precision="I64">
					<dim>2</dim>
				</port>
			</input>
			<output>
				<port id="3" precision="I64">
					<dim>1</dim>
				</port>
				<port id="4" precision="I64">
					<dim>3</dim>
				</port>
			</output>
		</layer>
		<layer id="48" name="Divide_3733" type="Divide" version="opset1">
			<data auto_broadcast="numpy" m_pythondiv="true" />
			<input>
				<port id="0" precision="I64">
					<dim>1</dim>
				</port>
				<port id="1" precision="I64">
					<dim>1</dim>
				</port>
			</input>
			<output>
				<port id="2" precision="I64">
					<dim>1</dim>
				</port>
			</output>
		</layer>
		<layer id="49" name="Concat_3734" type="Concat" version="opset1">
			<data axis="0" />
			<input>
				<port id="0" precision="I64">
					<dim>1</dim>
				</port>
				<port id="1" precision="I64">
					<dim>1</dim>
				</port>
				<port id="2" precision="I64">
					<dim>3</dim>
				</port>
			</input>
			<output>
				<port id="3" precision="I64">
					<dim>5</dim>
				</port>
			</output>
		</layer>
		<layer id="50" name="Reshape_3735" type="Reshape" version="opset1">
			<data special_zero="false" />
			<input>
				<port id="0" precision="FP32">
					<dim>24</dim>
					<dim>1</dim>
					<dim>3</dim>
					<dim>3</dim>
				</port>
				<port id="1" precision="I64">
					<dim>5</dim>
				</port>
			</input>
			<output>
				<port id="2" precision="FP32">
					<dim>24</dim>
					<dim>1</dim>
					<dim>1</dim>
					<dim>3</dim>
					<dim>3</dim>
				</port>
			</output>
		</layer>
		<layer id="51" name="/backbone/stage2/stage2.0/branch1/branch1.0/Conv/WithoutBiases" type="GroupConvolution" version="opset1">
			<data strides="2, 2" pads_begin="1, 1" pads_end="1, 1" dilations="1, 1" auto_pad="explicit" />
			<input>
				<port id="0" precision="FP32">
					<dim>1</dim>
					<dim>24</dim>
					<dim>104</dim>
					<dim>104</dim>
				</port>
				<port id="1" precision="FP32">
					<dim>24</dim>
					<dim>1</dim>
					<dim>1</dim>
					<dim>3</dim>
					<dim>3</dim>
				</port>
			</input>
			<output>
				<port id="2" precision="FP32">
					<dim>1</dim>
					<dim>24</dim>
					<dim>52</dim>
					<dim>52</dim>
				</port>
			</output>
		</layer>
		<layer id="52" name="Reshape_3821" type="Const" version="opset1">
			<data element_type="f32" shape="1, 24, 1, 1" offset="1280" size="96" />
			<output>
				<port id="0" precision="FP32">
					<dim>1</dim>
					<dim>24</dim>
					<dim>1</dim>
					<dim>1</dim>
				</port>
			</output>
		</layer>
		<layer id="53" name="/backbone/stage2/stage2.0/branch1/branch1.0/Conv" type="Add" version="opset1">
			<data auto_broadcast="numpy" />
			<input>
				<port id="0" precision="FP32">
					<dim>1</dim>
					<dim>24</dim>
					<dim>52</dim>
					<dim>52</dim>
				</port>
				<port id="1" precision="FP32">
					<dim>1</dim>
					<dim>24</dim>
					<dim>1</dim>
					<dim>1</dim>
				</port>
			</input>
			<output>
				<port id="2" precision="FP32" names="PPQ_Variable_144">
					<dim>1</dim>
					<dim>24</dim>
					<dim>52</dim>
					<dim>52</dim>
				</port>
			</output>
		</layer>
		<layer id="54" name="Constant_63256" type="Const" version="opset1">
			<data element_type="f32" shape="1, 1, 1, 1" offset="1376" size="4" />
			<output>
				<port id="0" precision="FP32">
					<dim>1</dim>
					<dim>1</dim>
					<dim>1</dim>
					<dim>1</dim>
				</port>
			</output>
		</layer>
		<layer id="55" name="Constant_63257" type="Const" version="opset1">
			<data element_type="f32" shape="1, 1, 1, 1" offset="1380" size="4" />
			<output>
				<port id="0" precision="FP32">
					<dim>1</dim>
					<dim>1</dim>
					<dim>1</dim>
					<dim>1</dim>
				</port>
			</output>
		</layer>
		<layer id="56" name="Constant_63258" type="Const" version="opset1">
			<data element_type="f32" shape="1, 1, 1, 1" offset="1376" size="4" />
			<output>
				<port id="0" precision="FP32">
					<dim>1</dim>
					<dim>1</dim>
					<dim>1</dim>
					<dim>1</dim>
				</port>
			</output>
		</layer>
		<layer id="57" name="Constant_63259" type="Const" version="opset1">
			<data element_type="f32" shape="1, 1, 1, 1" offset="1380" size="4" />
			<output>
				<port id="0" precision="FP32">
					<dim>1</dim>
					<dim>1</dim>
					<dim>1</dim>
					<dim>1</dim>
				</port>
			</output>
		</layer>
		<layer id="58" name="PPQ_Operation_9" type="FakeQuantize" version="opset1">
			<data levels="256" auto_broadcast="numpy" />
			<input>
				<port id="0" precision="FP32">
					<dim>1</dim>
					<dim>24</dim>
					<dim>52</dim>
					<dim>52</dim>
				</port>
				<port id="1" precision="FP32">
					<dim>1</dim>
					<dim>1</dim>
					<dim>1</dim>
					<dim>1</dim>
				</port>
				<port id="2" precision="FP32">
					<dim>1</dim>
					<dim>1</dim>
					<dim>1</dim>
					<dim>1</dim>
				</port>
				<port id="3" precision="FP32">
					<dim>1</dim>
					<dim>1</dim>
					<dim>1</dim>
					<dim>1</dim>
				</port>
				<port id="4" precision="FP32">
					<dim>1</dim>
					<dim>1</dim>
					<dim>1</dim>
					<dim>1</dim>
				</port>
			</input>
			<output>
				<port id="5" precision="FP32" names="/backbone/stage2/stage2.0/branch1/branch1.0/Conv_output_0">
					<dim>1</dim>
					<dim>24</dim>
					<dim>52</dim>
					<dim>52</dim>
				</port>
			</output>
		</layer>
		<layer id="59" name="onnx::Conv_1539" type="Const" version="opset1">
			<data element_type="i8" shape="88, 24, 1, 1" offset="1384" size="2112" />
			<output>
				<port id="0" precision="I8" names="onnx::Conv_1539">
					<dim>88</dim>
					<dim>24</dim>
					<dim>1</dim>
					<dim>1</dim>
				</port>
			</output>
		</layer>
		<layer id="60" name="Convert_1650" type="Convert" version="opset1">
			<data destination_type="f32" />
			<input>
				<port id="0" precision="I8">
					<dim>88</dim>
					<dim>24</dim>
					<dim>1</dim>
					<dim>1</dim>
				</port>
			</input>
			<output>
				<port id="1" precision="FP32">
					<dim>88</dim>
					<dim>24</dim>
					<dim>1</dim>
					<dim>1</dim>
				</port>
			</output>
		</layer>
		<layer id="61" name="Reshape_1644" type="Const" version="opset1">
			<data element_type="f32" shape="88, 1, 1, 1" offset="3496" size="352" />
			<output>
				<port id="0" precision="FP32">
					<dim>88</dim>
					<dim>1</dim>
					<dim>1</dim>
					<dim>1</dim>
				</port>
			</output>
		</layer>
		<layer id="62" name="PPQ_Operation_13" type="Multiply" version="opset1">
			<data auto_broadcast="numpy" />
			<input>
				<port id="0" precision="FP32">
					<dim>88</dim>
					<dim>24</dim>
					<dim>1</dim>
					<dim>1</dim>
				</port>
				<port id="1" precision="FP32">
					<dim>88</dim>
					<dim>1</dim>
					<dim>1</dim>
					<dim>1</dim>
				</port>
			</input>
			<output>
				<port id="2" precision="FP32" names="PPQ_Variable_159">
					<dim>88</dim>
					<dim>24</dim>
					<dim>1</dim>
					<dim>1</dim>
				</port>
			</output>
		</layer>
		<layer id="63" name="/backbone/stage2/stage2.0/branch1/branch1.2/Conv/WithoutBiases" type="Convolution" version="opset1">
			<data strides="1, 1" dilations="1, 1" pads_begin="0, 0" pads_end="0, 0" auto_pad="explicit" />
			<input>
				<port id="0" precision="FP32">
					<dim>1</dim>
					<dim>24</dim>
					<dim>52</dim>
					<dim>52</dim>
				</port>
				<port id="1" precision="FP32">
					<dim>88</dim>
					<dim>24</dim>
					<dim>1</dim>
					<dim>1</dim>
				</port>
			</input>
			<output>
				<port id="2" precision="FP32">
					<dim>1</dim>
					<dim>88</dim>
					<dim>52</dim>
					<dim>52</dim>
				</port>
			</output>
		</layer>
		<layer id="64" name="Reshape_4021" type="Const" version="opset1">
			<data element_type="f32" shape="1, 88, 1, 1" offset="3848" size="352" />
			<output>
				<port id="0" precision="FP32">
					<dim>1</dim>
					<dim>88</dim>
					<dim>1</dim>
					<dim>1</dim>
				</port>
			</output>
		</layer>
		<layer id="65" name="/backbone/stage2/stage2.0/branch1/branch1.2/Conv" type="Add" version="opset1">
			<data auto_broadcast="numpy" />
			<input>
				<port id="0" precision="FP32">
					<dim>1</dim>
					<dim>88</dim>
					<dim>52</dim>
					<dim>52</dim>
				</port>
				<port id="1" precision="FP32">
					<dim>1</dim>
					<dim>88</dim>
					<dim>1</dim>
					<dim>1</dim>
				</port>
			</input>
			<output>
				<port id="2" precision="FP32" names="PPQ_Variable_162">
					<dim>1</dim>
					<dim>88</dim>
					<dim>52</dim>
					<dim>52</dim>
				</port>
			</output>
		</layer>
		<layer id="66" name="Constant_63260" type="Const" version="opset1">
			<data element_type="f32" shape="1, 1, 1, 1" offset="4200" size="4" />
			<output>
				<port id="0" precision="FP32">
					<dim>1</dim>
					<dim>1</dim>
					<dim>1</dim>
					<dim>1</dim>
				</port>
			</output>
		</layer>
		<layer id="67" name="Constant_63261" type="Const" version="opset1">
			<data element_type="f32" shape="1, 1, 1, 1" offset="4204" size="4" />
			<output>
				<port id="0" precision="FP32">
					<dim>1</dim>
					<dim>1</dim>
					<dim>1</dim>
					<dim>1</dim>
				</port>
			</output>
		</layer>
		<layer id="68" name="Constant_63262" type="Const" version="opset1">
			<data element_type="f32" shape="1, 1, 1, 1" offset="4200" size="4" />
			<output>
				<port id="0" precision="FP32">
					<dim>1</dim>
					<dim>1</dim>
					<dim>1</dim>
					<dim>1</dim>
				</port>
			</output>
		</layer>
		<layer id="69" name="Constant_63263" type="Const" version="opset1">
			<data element_type="f32" shape="1, 1, 1, 1" offset="4204" size="4" />
			<output>
				<port id="0" precision="FP32">
					<dim>1</dim>
					<dim>1</dim>
					<dim>1</dim>
					<dim>1</dim>
				</port>
			</output>
		</layer>
		<layer id="70" name="PPQ_Operation_15" type="FakeQuantize" version="opset1">
			<data levels="256" auto_broadcast="numpy" />
			<input>
				<port id="0" precision="FP32">
					<dim>1</dim>
					<dim>88</dim>
					<dim>52</dim>
					<dim>52</dim>
				</port>
				<port id="1" precision="FP32">
					<dim>1</dim>
					<dim>1</dim>
					<dim>1</dim>
					<dim>1</dim>
				</port>
				<port id="2" precision="FP32">
					<dim>1</dim>
					<dim>1</dim>
					<dim>1</dim>
					<dim>1</dim>
				</port>
				<port id="3" precision="FP32">
					<dim>1</dim>
					<dim>1</dim>
					<dim>1</dim>
					<dim>1</dim>
				</port>
				<port id="4" precision="FP32">
					<dim>1</dim>
					<dim>1</dim>
					<dim>1</dim>
					<dim>1</dim>
				</port>
			</input>
			<output>
				<port id="5" precision="FP32" names="/backbone/stage2/stage2.0/branch1/branch1.2/Conv_output_0">
					<dim>1</dim>
					<dim>88</dim>
					<dim>52</dim>
					<dim>52</dim>
				</port>
			</output>
		</layer>
		<layer id="71" name="Constant_4155" type="Const" version="opset1">
			<data element_type="f32" shape="1" offset="932" size="4" />
			<output>
				<port id="0" precision="FP32">
					<dim>1</dim>
				</port>
			</output>
		</layer>
		<layer id="72" name="/backbone/stage2/stage2.0/branch1/branch1.4/LeakyRelu" type="PReLU" version="opset1">
			<input>
				<port id="0" precision="FP32">
					<dim>1</dim>
					<dim>88</dim>
					<dim>52</dim>
					<dim>52</dim>
				</port>
				<port id="1" precision="FP32">
					<dim>1</dim>
				</port>
			</input>
			<output>
				<port id="2" precision="FP32" names="PPQ_Variable_174">
					<dim>1</dim>
					<dim>88</dim>
					<dim>52</dim>
					<dim>52</dim>
				</port>
			</output>
		</layer>
		<layer id="73" name="Constant_63264" type="Const" version="opset1">
			<data element_type="f32" shape="1, 1, 1, 1" offset="4208" size="4" />
			<output>
				<port id="0" precision="FP32">
					<dim>1</dim>
					<dim>1</dim>
					<dim>1</dim>
					<dim>1</dim>
				</port>
			</output>
		</layer>
		<layer id="74" name="Constant_63265" type="Const" version="opset1">
			<data element_type="f32" shape="1, 1, 1, 1" offset="4212" size="4" />
			<output>
				<port id="0" precision="FP32">
					<dim>1</dim>
					<dim>1</dim>
					<dim>1</dim>
					<dim>1</dim>
				</port>
			</output>
		</layer>
		<layer id="75" name="Constant_63266" type="Const" version="opset1">
			<data element_type="f32" shape="1, 1, 1, 1" offset="4208" size="4" />
			<output>
				<port id="0" precision="FP32">
					<dim>1</dim>
					<dim>1</dim>
					<dim>1</dim>
					<dim>1</dim>
				</port>
			</output>
		</layer>
		<layer id="76" name="Constant_63267" type="Const" version="opset1">
			<data element_type="f32" shape="1, 1, 1, 1" offset="4212" size="4" />
			<output>
				<port id="0" precision="FP32">
					<dim>1</dim>
					<dim>1</dim>
					<dim>1</dim>
					<dim>1</dim>
				</port>
			</output>
		</layer>
		<layer id="77" name="PPQ_Operation_19" type="FakeQuantize" version="opset1">
			<data levels="256" auto_broadcast="numpy" />
			<input>
				<port id="0" precision="FP32">
					<dim>1</dim>
					<dim>88</dim>
					<dim>52</dim>
					<dim>52</dim>
				</port>
				<port id="1" precision="FP32">
					<dim>1</dim>
					<dim>1</dim>
					<dim>1</dim>
					<dim>1</dim>
				</port>
				<port id="2" precision="FP32">
					<dim>1</dim>
					<dim>1</dim>
					<dim>1</dim>
					<dim>1</dim>
				</port>
				<port id="3" precision="FP32">
					<dim>1</dim>
					<dim>1</dim>
					<dim>1</dim>
					<dim>1</dim>
				</port>
				<port id="4" precision="FP32">
					<dim>1</dim>
					<dim>1</dim>
					<dim>1</dim>
					<dim>1</dim>
				</port>
			</input>
			<output>
				<port id="5" precision="FP32" names="/backbone/stage2/stage2.0/branch1/branch1.4/LeakyRelu_output_0">
					<dim>1</dim>
					<dim>88</dim>
					<dim>52</dim>
					<dim>52</dim>
				</port>
			</output>
		</layer>
		<layer id="78" name="onnx::Conv_1542" type="Const" version="opset1">
			<data element_type="i8" shape="88, 24, 1, 1" offset="4216" size="2112" />
			<output>
				<port id="0" precision="I8" names="onnx::Conv_1542">
					<dim>88</dim>
					<dim>24</dim>
					<dim>1</dim>
					<dim>1</dim>
				</port>
			</output>
		</layer>
		<layer id="79" name="Convert_1632" type="Convert" version="opset1">
			<data destination_type="f32" />
			<input>
				<port id="0" precision="I8">
					<dim>88</dim>
					<dim>24</dim>
					<dim>1</dim>
					<dim>1</dim>
				</port>
			</input>
			<output>
				<port id="1" precision="FP32">
					<dim>88</dim>
					<dim>24</dim>
					<dim>1</dim>
					<dim>1</dim>
				</port>
			</output>
		</layer>
		<layer id="80" name="Reshape_1626" type="Const" version="opset1">
			<data element_type="f32" shape="88, 1, 1, 1" offset="6328" size="352" />
			<output>
				<port id="0" precision="FP32">
					<dim>88</dim>
					<dim>1</dim>
					<dim>1</dim>
					<dim>1</dim>
				</port>
			</output>
		</layer>
		<layer id="81" name="PPQ_Operation_10" type="Multiply" version="opset1">
			<data auto_broadcast="numpy" />
			<input>
				<port id="0" precision="FP32">
					<dim>88</dim>
					<dim>24</dim>
					<dim>1</dim>
					<dim>1</dim>
				</port>
				<port id="1" precision="FP32">
					<dim>88</dim>
					<dim>1</dim>
					<dim>1</dim>
					<dim>1</dim>
				</port>
			</input>
			<output>
				<port id="2" precision="FP32" names="PPQ_Variable_150">
					<dim>88</dim>
					<dim>24</dim>
					<dim>1</dim>
					<dim>1</dim>
				</port>
			</output>
		</layer>
		<layer id="82" name="/backbone/stage2/stage2.0/branch2/branch2.0/Conv/WithoutBiases" type="Convolution" version="opset1">
			<data strides="1, 1" dilations="1, 1" pads_begin="0, 0" pads_end="0, 0" auto_pad="explicit" />
			<input>
				<port id="0" precision="FP32">
					<dim>1</dim>
					<dim>24</dim>
					<dim>104</dim>
					<dim>104</dim>
				</port>
				<port id="1" precision="FP32">
					<dim>88</dim>
					<dim>24</dim>
					<dim>1</dim>
					<dim>1</dim>
				</port>
			</input>
			<output>
				<port id="2" precision="FP32">
					<dim>1</dim>
					<dim>88</dim>
					<dim>104</dim>
					<dim>104</dim>
				</port>
			</output>
		</layer>
		<layer id="83" name="Reshape_3869" type="Const" version="opset1">
			<data element_type="f32" shape="1, 88, 1, 1" offset="6680" size="352" />
			<output>
				<port id="0" precision="FP32">
					<dim>1</dim>
					<dim>88</dim>
					<dim>1</dim>
					<dim>1</dim>
				</port>
			</output>
		</layer>
		<layer id="84" name="/backbone/stage2/stage2.0/branch2/branch2.0/Conv" type="Add" version="opset1">
			<data auto_broadcast="numpy" />
			<input>
				<port id="0" precision="FP32">
					<dim>1</dim>
					<dim>88</dim>
					<dim>104</dim>
					<dim>104</dim>
				</port>
				<port id="1" precision="FP32">
					<dim>1</dim>
					<dim>88</dim>
					<dim>1</dim>
					<dim>1</dim>
				</port>
			</input>
			<output>
				<port id="2" precision="FP32" names="PPQ_Variable_153">
					<dim>1</dim>
					<dim>88</dim>
					<dim>104</dim>
					<dim>104</dim>
				</port>
			</output>
		</layer>
		<layer id="85" name="Constant_63268" type="Const" version="opset1">
			<data element_type="f32" shape="1, 1, 1, 1" offset="7032" size="4" />
			<output>
				<port id="0" precision="FP32">
					<dim>1</dim>
					<dim>1</dim>
					<dim>1</dim>
					<dim>1</dim>
				</port>
			</output>
		</layer>
		<layer id="86" name="Constant_63269" type="Const" version="opset1">
			<data element_type="f32" shape="1, 1, 1, 1" offset="7036" size="4" />
			<output>
				<port id="0" precision="FP32">
					<dim>1</dim>
					<dim>1</dim>
					<dim>1</dim>
					<dim>1</dim>
				</port>
			</output>
		</layer>
		<layer id="87" name="Constant_63270" type="Const" version="opset1">
			<data element_type="f32" shape="1, 1, 1, 1" offset="7032" size="4" />
			<output>
				<port id="0" precision="FP32">
					<dim>1</dim>
					<dim>1</dim>
					<dim>1</dim>
					<dim>1</dim>
				</port>
			</output>
		</layer>
		<layer id="88" name="Constant_63271" type="Const" version="opset1">
			<data element_type="f32" shape="1, 1, 1, 1" offset="7036" size="4" />
			<output>
				<port id="0" precision="FP32">
					<dim>1</dim>
					<dim>1</dim>
					<dim>1</dim>
					<dim>1</dim>
				</port>
			</output>
		</layer>
		<layer id="89" name="PPQ_Operation_12" type="FakeQuantize" version="opset1">
			<data levels="256" auto_broadcast="numpy" />
			<input>
				<port id="0" precision="FP32">
					<dim>1</dim>
					<dim>88</dim>
					<dim>104</dim>
					<dim>104</dim>
				</port>
				<port id="1" precision="FP32">
					<dim>1</dim>
					<dim>1</dim>
					<dim>1</dim>
					<dim>1</dim>
				</port>
				<port id="2" precision="FP32">
					<dim>1</dim>
					<dim>1</dim>
					<dim>1</dim>
					<dim>1</dim>
				</port>
				<port id="3" precision="FP32">
					<dim>1</dim>
					<dim>1</dim>
					<dim>1</dim>
					<dim>1</dim>
				</port>
				<port id="4" precision="FP32">
					<dim>1</dim>
					<dim>1</dim>
					<dim>1</dim>
					<dim>1</dim>
				</port>
			</input>
			<output>
				<port id="5" precision="FP32" names="/backbone/stage2/stage2.0/branch2/branch2.0/Conv_output_0">
					<dim>1</dim>
					<dim>88</dim>
					<dim>104</dim>
					<dim>104</dim>
				</port>
			</output>
		</layer>
		<layer id="90" name="Constant_4049" type="Const" version="opset1">
			<data element_type="f32" shape="1" offset="932" size="4" />
			<output>
				<port id="0" precision="FP32">
					<dim>1</dim>
				</port>
			</output>
		</layer>
		<layer id="91" name="/backbone/stage2/stage2.0/branch2/branch2.2/LeakyRelu" type="PReLU" version="opset1">
			<input>
				<port id="0" precision="FP32">
					<dim>1</dim>
					<dim>88</dim>
					<dim>104</dim>
					<dim>104</dim>
				</port>
				<port id="1" precision="FP32">
					<dim>1</dim>
				</port>
			</input>
			<output>
				<port id="2" precision="FP32" names="PPQ_Variable_168">
					<dim>1</dim>
					<dim>88</dim>
					<dim>104</dim>
					<dim>104</dim>
				</port>
			</output>
		</layer>
		<layer id="92" name="Constant_63272" type="Const" version="opset1">
			<data element_type="f32" shape="1, 1, 1, 1" offset="7040" size="4" />
			<output>
				<port id="0" precision="FP32">
					<dim>1</dim>
					<dim>1</dim>
					<dim>1</dim>
					<dim>1</dim>
				</port>
			</output>
		</layer>
		<layer id="93" name="Constant_63273" type="Const" version="opset1">
			<data element_type="f32" shape="1, 1, 1, 1" offset="7044" size="4" />
			<output>
				<port id="0" precision="FP32">
					<dim>1</dim>
					<dim>1</dim>
					<dim>1</dim>
					<dim>1</dim>
				</port>
			</output>
		</layer>
		<layer id="94" name="Constant_63274" type="Const" version="opset1">
			<data element_type="f32" shape="1, 1, 1, 1" offset="7040" size="4" />
			<output>
				<port id="0" precision="FP32">
					<dim>1</dim>
					<dim>1</dim>
					<dim>1</dim>
					<dim>1</dim>
				</port>
			</output>
		</layer>
		<layer id="95" name="Constant_63275" type="Const" version="opset1">
			<data element_type="f32" shape="1, 1, 1, 1" offset="7044" size="4" />
			<output>
				<port id="0" precision="FP32">
					<dim>1</dim>
					<dim>1</dim>
					<dim>1</dim>
					<dim>1</dim>
				</port>
			</output>
		</layer>
		<layer id="96" name="PPQ_Operation_17" type="FakeQuantize" version="opset1">
			<data levels="256" auto_broadcast="numpy" />
			<input>
				<port id="0" precision="FP32">
					<dim>1</dim>
					<dim>88</dim>
					<dim>104</dim>
					<dim>104</dim>
				</port>
				<port id="1" precision="FP32">
					<dim>1</dim>
					<dim>1</dim>
					<dim>1</dim>
					<dim>1</dim>
				</port>
				<port id="2" precision="FP32">
					<dim>1</dim>
					<dim>1</dim>
					<dim>1</dim>
					<dim>1</dim>
				</port>
				<port id="3" precision="FP32">
					<dim>1</dim>
					<dim>1</dim>
					<dim>1</dim>
					<dim>1</dim>
				</port>
				<port id="4" precision="FP32">
					<dim>1</dim>
					<dim>1</dim>
					<dim>1</dim>
					<dim>1</dim>
				</port>
			</input>
			<output>
				<port id="5" precision="FP32" names="/backbone/stage2/stage2.0/branch2/branch2.2/LeakyRelu_output_0">
					<dim>1</dim>
					<dim>88</dim>
					<dim>104</dim>
					<dim>104</dim>
				</port>
			</output>
		</layer>
		<layer id="97" name="onnx::Conv_1545" type="Const" version="opset1">
			<data element_type="i8" shape="88, 1, 3, 3" offset="7048" size="792" />
			<output>
				<port id="0" precision="I8" names="onnx::Conv_1545">
					<dim>88</dim>
					<dim>1</dim>
					<dim>3</dim>
					<dim>3</dim>
				</port>
			</output>
		</layer>
		<layer id="98" name="Convert_1668" type="Convert" version="opset1">
			<data destination_type="f32" />
			<input>
				<port id="0" precision="I8">
					<dim>88</dim>
					<dim>1</dim>
					<dim>3</dim>
					<dim>3</dim>
				</port>
			</input>
			<output>
				<port id="1" precision="FP32">
					<dim>88</dim>
					<dim>1</dim>
					<dim>3</dim>
					<dim>3</dim>
				</port>
			</output>
		</layer>
		<layer id="99" name="Reshape_1662" type="Const" version="opset1">
			<data element_type="f32" shape="88, 1, 1, 1" offset="7840" size="352" />
			<output>
				<port id="0" precision="FP32">
					<dim>88</dim>
					<dim>1</dim>
					<dim>1</dim>
					<dim>1</dim>
				</port>
			</output>
		</layer>
		<layer id="100" name="PPQ_Operation_20" type="Multiply" version="opset1">
			<data auto_broadcast="numpy" />
			<input>
				<port id="0" precision="FP32">
					<dim>88</dim>
					<dim>1</dim>
					<dim>3</dim>
					<dim>3</dim>
				</port>
				<port id="1" precision="FP32">
					<dim>88</dim>
					<dim>1</dim>
					<dim>1</dim>
					<dim>1</dim>
				</port>
			</input>
			<output>
				<port id="2" precision="FP32" names="PPQ_Variable_180">
					<dim>88</dim>
					<dim>1</dim>
					<dim>3</dim>
					<dim>3</dim>
				</port>
			</output>
		</layer>
		<layer id="101" name="Constant_4159" type="Const" version="opset1">
			<data element_type="i64" shape="1" offset="8192" size="8" />
			<output>
				<port id="0" precision="I64">
					<dim>1</dim>
				</port>
			</output>
		</layer>
		<layer id="102" name="ShapeOf_4160" type="ShapeOf" version="opset3">
			<data output_type="i64" />
			<input>
				<port id="0" precision="FP32">
					<dim>88</dim>
					<dim>1</dim>
					<dim>3</dim>
					<dim>3</dim>
				</port>
			</input>
			<output>
				<port id="1" precision="I64">
					<dim>4</dim>
				</port>
			</output>
		</layer>
		<layer id="103" name="Constant_4157" type="Const" version="opset1">
			<data element_type="i64" shape="" offset="1256" size="8" />
			<output>
				<port id="0" precision="I64" />
			</output>
		</layer>
		<layer id="104" name="Constant_4158" type="Const" version="opset1">
			<data element_type="i64" shape="2" offset="1264" size="16" />
			<output>
				<port id="0" precision="I64">
					<dim>2</dim>
				</port>
			</output>
		</layer>
		<layer id="105" name="VariadicSplit_4161" type="VariadicSplit" version="opset1">
			<input>
				<port id="0" precision="I64">
					<dim>4</dim>
				</port>
				<port id="1" precision="I64" />
				<port id="2" precision="I64">
					<dim>2</dim>
				</port>
			</input>
			<output>
				<port id="3" precision="I64">
					<dim>1</dim>
				</port>
				<port id="4" precision="I64">
					<dim>3</dim>
				</port>
			</output>
		</layer>
		<layer id="106" name="Divide_4162" type="Divide" version="opset1">
			<data auto_broadcast="numpy" m_pythondiv="true" />
			<input>
				<port id="0" precision="I64">
					<dim>1</dim>
				</port>
				<port id="1" precision="I64">
					<dim>1</dim>
				</port>
			</input>
			<output>
				<port id="2" precision="I64">
					<dim>1</dim>
				</port>
			</output>
		</layer>
		<layer id="107" name="Concat_4163" type="Concat" version="opset1">
			<data axis="0" />
			<input>
				<port id="0" precision="I64">
					<dim>1</dim>
				</port>
				<port id="1" precision="I64">
					<dim>1</dim>
				</port>
				<port id="2" precision="I64">
					<dim>3</dim>
				</port>
			</input>
			<output>
				<port id="3" precision="I64">
					<dim>5</dim>
				</port>
			</output>
		</layer>
		<layer id="108" name="Reshape_4164" type="Reshape" version="opset1">
			<data special_zero="false" />
			<input>
				<port id="0" precision="FP32">
					<dim>88</dim>
					<dim>1</dim>
					<dim>3</dim>
					<dim>3</dim>
				</port>
				<port id="1" precision="I64">
					<dim>5</dim>
				</port>
			</input>
			<output>
				<port id="2" precision="FP32">
					<dim>88</dim>
					<dim>1</dim>
					<dim>1</dim>
					<dim>3</dim>
					<dim>3</dim>
				</port>
			</output>
		</layer>
		<layer id="109" name="/backbone/stage2/stage2.0/branch2/branch2.3/Conv/WithoutBiases" type="GroupConvolution" version="opset1">
			<data strides="2, 2" pads_begin="1, 1" pads_end="1, 1" dilations="1, 1" auto_pad="explicit" />
			<input>
				<port id="0" precision="FP32">
					<dim>1</dim>
					<dim>88</dim>
					<dim>104</dim>
					<dim>104</dim>
				</port>
				<port id="1" precision="FP32">
					<dim>88</dim>
					<dim>1</dim>
					<dim>1</dim>
					<dim>3</dim>
					<dim>3</dim>
				</port>
			</input>
			<output>
				<port id="2" precision="FP32">
					<dim>1</dim>
					<dim>88</dim>
					<dim>52</dim>
					<dim>52</dim>
				</port>
			</output>
		</layer>
		<layer id="110" name="Reshape_4250" type="Const" version="opset1">
			<data element_type="f32" shape="1, 88, 1, 1" offset="8200" size="352" />
			<output>
				<port id="0" precision="FP32">
					<dim>1</dim>
					<dim>88</dim>
					<dim>1</dim>
					<dim>1</dim>
				</port>
			</output>
		</layer>
		<layer id="111" name="/backbone/stage2/stage2.0/branch2/branch2.3/Conv" type="Add" version="opset1">
			<data auto_broadcast="numpy" />
			<input>
				<port id="0" precision="FP32">
					<dim>1</dim>
					<dim>88</dim>
					<dim>52</dim>
					<dim>52</dim>
				</port>
				<port id="1" precision="FP32">
					<dim>1</dim>
					<dim>88</dim>
					<dim>1</dim>
					<dim>1</dim>
				</port>
			</input>
			<output>
				<port id="2" precision="FP32" names="PPQ_Variable_183">
					<dim>1</dim>
					<dim>88</dim>
					<dim>52</dim>
					<dim>52</dim>
				</port>
			</output>
		</layer>
		<layer id="112" name="Constant_63276" type="Const" version="opset1">
			<data element_type="f32" shape="1, 1, 1, 1" offset="8552" size="4" />
			<output>
				<port id="0" precision="FP32">
					<dim>1</dim>
					<dim>1</dim>
					<dim>1</dim>
					<dim>1</dim>
				</port>
			</output>
		</layer>
		<layer id="113" name="Constant_63277" type="Const" version="opset1">
			<data element_type="f32" shape="1, 1, 1, 1" offset="8556" size="4" />
			<output>
				<port id="0" precision="FP32">
					<dim>1</dim>
					<dim>1</dim>
					<dim>1</dim>
					<dim>1</dim>
				</port>
			</output>
		</layer>
		<layer id="114" name="Constant_63278" type="Const" version="opset1">
			<data element_type="f32" shape="1, 1, 1, 1" offset="8552" size="4" />
			<output>
				<port id="0" precision="FP32">
					<dim>1</dim>
					<dim>1</dim>
					<dim>1</dim>
					<dim>1</dim>
				</port>
			</output>
		</layer>
		<layer id="115" name="Constant_63279" type="Const" version="opset1">
			<data element_type="f32" shape="1, 1, 1, 1" offset="8556" size="4" />
			<output>
				<port id="0" precision="FP32">
					<dim>1</dim>
					<dim>1</dim>
					<dim>1</dim>
					<dim>1</dim>
				</port>
			</output>
		</layer>
		<layer id="116" name="PPQ_Operation_22" type="FakeQuantize" version="opset1">
			<data levels="256" auto_broadcast="numpy" />
			<input>
				<port id="0" precision="FP32">
					<dim>1</dim>
					<dim>88</dim>
					<dim>52</dim>
					<dim>52</dim>
				</port>
				<port id="1" precision="FP32">
					<dim>1</dim>
					<dim>1</dim>
					<dim>1</dim>
					<dim>1</dim>
				</port>
				<port id="2" precision="FP32">
					<dim>1</dim>
					<dim>1</dim>
					<dim>1</dim>
					<dim>1</dim>
				</port>
				<port id="3" precision="FP32">
					<dim>1</dim>
					<dim>1</dim>
					<dim>1</dim>
					<dim>1</dim>
				</port>
				<port id="4" precision="FP32">
					<dim>1</dim>
					<dim>1</dim>
					<dim>1</dim>
					<dim>1</dim>
				</port>
			</input>
			<output>
				<port id="5" precision="FP32" names="/backbone/stage2/stage2.0/branch2/branch2.3/Conv_output_0">
					<dim>1</dim>
					<dim>88</dim>
					<dim>52</dim>
					<dim>52</dim>
				</port>
			</output>
		</layer>
		<layer id="117" name="onnx::Conv_1548" type="Const" version="opset1">
			<data element_type="i8" shape="88, 88, 1, 1" offset="8560" size="7744" />
			<output>
				<port id="0" precision="I8" names="onnx::Conv_1548">
					<dim>88</dim>
					<dim>88</dim>
					<dim>1</dim>
					<dim>1</dim>
				</port>
			</output>
		</layer>
		<layer id="118" name="Convert_1686" type="Convert" version="opset1">
			<data destination_type="f32" />
			<input>
				<port id="0" precision="I8">
					<dim>88</dim>
					<dim>88</dim>
					<dim>1</dim>
					<dim>1</dim>
				</port>
			</input>
			<output>
				<port id="1" precision="FP32">
					<dim>88</dim>
					<dim>88</dim>
					<dim>1</dim>
					<dim>1</dim>
				</port>
			</output>
		</layer>
		<layer id="119" name="Reshape_1680" type="Const" version="opset1">
			<data element_type="f32" shape="88, 1, 1, 1" offset="16304" size="352" />
			<output>
				<port id="0" precision="FP32">
					<dim>88</dim>
					<dim>1</dim>
					<dim>1</dim>
					<dim>1</dim>
				</port>
			</output>
		</layer>
		<layer id="120" name="PPQ_Operation_23" type="Multiply" version="opset1">
			<data auto_broadcast="numpy" />
			<input>
				<port id="0" precision="FP32">
					<dim>88</dim>
					<dim>88</dim>
					<dim>1</dim>
					<dim>1</dim>
				</port>
				<port id="1" precision="FP32">
					<dim>88</dim>
					<dim>1</dim>
					<dim>1</dim>
					<dim>1</dim>
				</port>
			</input>
			<output>
				<port id="2" precision="FP32" names="PPQ_Variable_189">
					<dim>88</dim>
					<dim>88</dim>
					<dim>1</dim>
					<dim>1</dim>
				</port>
			</output>
		</layer>
		<layer id="121" name="/backbone/stage2/stage2.0/branch2/branch2.5/Conv/WithoutBiases" type="Convolution" version="opset1">
			<data strides="1, 1" dilations="1, 1" pads_begin="0, 0" pads_end="0, 0" auto_pad="explicit" />
			<input>
				<port id="0" precision="FP32">
					<dim>1</dim>
					<dim>88</dim>
					<dim>52</dim>
					<dim>52</dim>
				</port>
				<port id="1" precision="FP32">
					<dim>88</dim>
					<dim>88</dim>
					<dim>1</dim>
					<dim>1</dim>
				</port>
			</input>
			<output>
				<port id="2" precision="FP32">
					<dim>1</dim>
					<dim>88</dim>
					<dim>52</dim>
					<dim>52</dim>
				</port>
			</output>
		</layer>
		<layer id="122" name="Reshape_4402" type="Const" version="opset1">
			<data element_type="f32" shape="1, 88, 1, 1" offset="16656" size="352" />
			<output>
				<port id="0" precision="FP32">
					<dim>1</dim>
					<dim>88</dim>
					<dim>1</dim>
					<dim>1</dim>
				</port>
			</output>
		</layer>
		<layer id="123" name="/backbone/stage2/stage2.0/branch2/branch2.5/Conv" type="Add" version="opset1">
			<data auto_broadcast="numpy" />
			<input>
				<port id="0" precision="FP32">
					<dim>1</dim>
					<dim>88</dim>
					<dim>52</dim>
					<dim>52</dim>
				</port>
				<port id="1" precision="FP32">
					<dim>1</dim>
					<dim>88</dim>
					<dim>1</dim>
					<dim>1</dim>
				</port>
			</input>
			<output>
				<port id="2" precision="FP32" names="PPQ_Variable_192">
					<dim>1</dim>
					<dim>88</dim>
					<dim>52</dim>
					<dim>52</dim>
				</port>
			</output>
		</layer>
		<layer id="124" name="Constant_63280" type="Const" version="opset1">
			<data element_type="f32" shape="1, 1, 1, 1" offset="17008" size="4" />
			<output>
				<port id="0" precision="FP32">
					<dim>1</dim>
					<dim>1</dim>
					<dim>1</dim>
					<dim>1</dim>
				</port>
			</output>
		</layer>
		<layer id="125" name="Constant_63281" type="Const" version="opset1">
			<data element_type="f32" shape="1, 1, 1, 1" offset="17012" size="4" />
			<output>
				<port id="0" precision="FP32">
					<dim>1</dim>
					<dim>1</dim>
					<dim>1</dim>
					<dim>1</dim>
				</port>
			</output>
		</layer>
		<layer id="126" name="Constant_63282" type="Const" version="opset1">
			<data element_type="f32" shape="1, 1, 1, 1" offset="17008" size="4" />
			<output>
				<port id="0" precision="FP32">
					<dim>1</dim>
					<dim>1</dim>
					<dim>1</dim>
					<dim>1</dim>
				</port>
			</output>
		</layer>
		<layer id="127" name="Constant_63283" type="Const" version="opset1">
			<data element_type="f32" shape="1, 1, 1, 1" offset="17012" size="4" />
			<output>
				<port id="0" precision="FP32">
					<dim>1</dim>
					<dim>1</dim>
					<dim>1</dim>
					<dim>1</dim>
				</port>
			</output>
		</layer>
		<layer id="128" name="PPQ_Operation_25" type="FakeQuantize" version="opset1">
			<data levels="256" auto_broadcast="numpy" />
			<input>
				<port id="0" precision="FP32">
					<dim>1</dim>
					<dim>88</dim>
					<dim>52</dim>
					<dim>52</dim>
				</port>
				<port id="1" precision="FP32">
					<dim>1</dim>
					<dim>1</dim>
					<dim>1</dim>
					<dim>1</dim>
				</port>
				<port id="2" precision="FP32">
					<dim>1</dim>
					<dim>1</dim>
					<dim>1</dim>
					<dim>1</dim>
				</port>
				<port id="3" precision="FP32">
					<dim>1</dim>
					<dim>1</dim>
					<dim>1</dim>
					<dim>1</dim>
				</port>
				<port id="4" precision="FP32">
					<dim>1</dim>
					<dim>1</dim>
					<dim>1</dim>
					<dim>1</dim>
				</port>
			</input>
			<output>
				<port id="5" precision="FP32" names="/backbone/stage2/stage2.0/branch2/branch2.5/Conv_output_0">
					<dim>1</dim>
					<dim>88</dim>
					<dim>52</dim>
					<dim>52</dim>
				</port>
			</output>
		</layer>
		<layer id="129" name="Constant_4482" type="Const" version="opset1">
			<data element_type="f32" shape="1" offset="932" size="4" />
			<output>
				<port id="0" precision="FP32">
					<dim>1</dim>
				</port>
			</output>
		</layer>
		<layer id="130" name="/backbone/stage2/stage2.0/branch2/branch2.7/LeakyRelu" type="PReLU" version="opset1">
			<input>
				<port id="0" precision="FP32">
					<dim>1</dim>
					<dim>88</dim>
					<dim>52</dim>
					<dim>52</dim>
				</port>
				<port id="1" precision="FP32">
					<dim>1</dim>
				</port>
			</input>
			<output>
				<port id="2" precision="FP32" names="PPQ_Variable_198">
					<dim>1</dim>
					<dim>88</dim>
					<dim>52</dim>
					<dim>52</dim>
				</port>
			</output>
		</layer>
		<layer id="131" name="Constant_63284" type="Const" version="opset1">
			<data element_type="f32" shape="1, 1, 1, 1" offset="4208" size="4" />
			<output>
				<port id="0" precision="FP32">
					<dim>1</dim>
					<dim>1</dim>
					<dim>1</dim>
					<dim>1</dim>
				</port>
			</output>
		</layer>
		<layer id="132" name="Constant_63285" type="Const" version="opset1">
			<data element_type="f32" shape="1, 1, 1, 1" offset="4212" size="4" />
			<output>
				<port id="0" precision="FP32">
					<dim>1</dim>
					<dim>1</dim>
					<dim>1</dim>
					<dim>1</dim>
				</port>
			</output>
		</layer>
		<layer id="133" name="Constant_63286" type="Const" version="opset1">
			<data element_type="f32" shape="1, 1, 1, 1" offset="4208" size="4" />
			<output>
				<port id="0" precision="FP32">
					<dim>1</dim>
					<dim>1</dim>
					<dim>1</dim>
					<dim>1</dim>
				</port>
			</output>
		</layer>
		<layer id="134" name="Constant_63287" type="Const" version="opset1">
			<data element_type="f32" shape="1, 1, 1, 1" offset="4212" size="4" />
			<output>
				<port id="0" precision="FP32">
					<dim>1</dim>
					<dim>1</dim>
					<dim>1</dim>
					<dim>1</dim>
				</port>
			</output>
		</layer>
		<layer id="135" name="PPQ_Operation_27" type="FakeQuantize" version="opset1">
			<data levels="256" auto_broadcast="numpy" />
			<input>
				<port id="0" precision="FP32">
					<dim>1</dim>
					<dim>88</dim>
					<dim>52</dim>
					<dim>52</dim>
				</port>
				<port id="1" precision="FP32">
					<dim>1</dim>
					<dim>1</dim>
					<dim>1</dim>
					<dim>1</dim>
				</port>
				<port id="2" precision="FP32">
					<dim>1</dim>
					<dim>1</dim>
					<dim>1</dim>
					<dim>1</dim>
				</port>
				<port id="3" precision="FP32">
					<dim>1</dim>
					<dim>1</dim>
					<dim>1</dim>
					<dim>1</dim>
				</port>
				<port id="4" precision="FP32">
					<dim>1</dim>
					<dim>1</dim>
					<dim>1</dim>
					<dim>1</dim>
				</port>
			</input>
			<output>
				<port id="5" precision="FP32" names="/backbone/stage2/stage2.0/branch2/branch2.7/LeakyRelu_output_0">
					<dim>1</dim>
					<dim>88</dim>
					<dim>52</dim>
					<dim>52</dim>
				</port>
			</output>
		</layer>
		<layer id="136" name="/backbone/stage2/stage2.0/Concat" type="Concat" version="opset1">
			<data axis="1" />
			<input>
				<port id="0" precision="FP32">
					<dim>1</dim>
					<dim>88</dim>
					<dim>52</dim>
					<dim>52</dim>
				</port>
				<port id="1" precision="FP32">
					<dim>1</dim>
					<dim>88</dim>
					<dim>52</dim>
					<dim>52</dim>
				</port>
			</input>
			<output>
				<port id="2" precision="FP32" names="PPQ_Variable_204">
					<dim>1</dim>
					<dim>176</dim>
					<dim>52</dim>
					<dim>52</dim>
				</port>
			</output>
		</layer>
		<layer id="137" name="Constant_63288" type="Const" version="opset1">
			<data element_type="f32" shape="1, 1, 1, 1" offset="4208" size="4" />
			<output>
				<port id="0" precision="FP32">
					<dim>1</dim>
					<dim>1</dim>
					<dim>1</dim>
					<dim>1</dim>
				</port>
			</output>
		</layer>
		<layer id="138" name="Constant_63289" type="Const" version="opset1">
			<data element_type="f32" shape="1, 1, 1, 1" offset="4212" size="4" />
			<output>
				<port id="0" precision="FP32">
					<dim>1</dim>
					<dim>1</dim>
					<dim>1</dim>
					<dim>1</dim>
				</port>
			</output>
		</layer>
		<layer id="139" name="Constant_63290" type="Const" version="opset1">
			<data element_type="f32" shape="1, 1, 1, 1" offset="4208" size="4" />
			<output>
				<port id="0" precision="FP32">
					<dim>1</dim>
					<dim>1</dim>
					<dim>1</dim>
					<dim>1</dim>
				</port>
			</output>
		</layer>
		<layer id="140" name="Constant_63291" type="Const" version="opset1">
			<data element_type="f32" shape="1, 1, 1, 1" offset="4212" size="4" />
			<output>
				<port id="0" precision="FP32">
					<dim>1</dim>
					<dim>1</dim>
					<dim>1</dim>
					<dim>1</dim>
				</port>
			</output>
		</layer>
		<layer id="141" name="PPQ_Operation_29" type="FakeQuantize" version="opset1">
			<data levels="256" auto_broadcast="numpy" />
			<input>
				<port id="0" precision="FP32">
					<dim>1</dim>
					<dim>176</dim>
					<dim>52</dim>
					<dim>52</dim>
				</port>
				<port id="1" precision="FP32">
					<dim>1</dim>
					<dim>1</dim>
					<dim>1</dim>
					<dim>1</dim>
				</port>
				<port id="2" precision="FP32">
					<dim>1</dim>
					<dim>1</dim>
					<dim>1</dim>
					<dim>1</dim>
				</port>
				<port id="3" precision="FP32">
					<dim>1</dim>
					<dim>1</dim>
					<dim>1</dim>
					<dim>1</dim>
				</port>
				<port id="4" precision="FP32">
					<dim>1</dim>
					<dim>1</dim>
					<dim>1</dim>
					<dim>1</dim>
				</port>
			</input>
			<output>
				<port id="5" precision="FP32" names="/backbone/stage2/stage2.0/Concat_output_0">
					<dim>1</dim>
					<dim>176</dim>
					<dim>52</dim>
					<dim>52</dim>
				</port>
			</output>
		</layer>
		<layer id="142" name="PPQ_Variable_0" type="Const" version="opset1">
			<data element_type="i64" shape="5" offset="17016" size="40" />
			<output>
				<port id="0" precision="I64" names="PPQ_Variable_0">
					<dim>5</dim>
				</port>
			</output>
		</layer>
		<layer id="143" name="/backbone/stage2/stage2.0/Reshape" type="Reshape" version="opset1">
			<data special_zero="true" />
			<input>
				<port id="0" precision="FP32">
					<dim>1</dim>
					<dim>176</dim>
					<dim>52</dim>
					<dim>52</dim>
				</port>
				<port id="1" precision="I64">
					<dim>5</dim>
				</port>
			</input>
			<output>
				<port id="2" precision="FP32" names="/backbone/stage2/stage2.0/Reshape_output_0">
					<dim>1</dim>
					<dim>2</dim>
					<dim>88</dim>
					<dim>52</dim>
					<dim>52</dim>
				</port>
			</output>
		</layer>
		<layer id="144" name="Constant_4595" type="Const" version="opset1">
			<data element_type="i64" shape="5" offset="17056" size="40" />
			<output>
				<port id="0" precision="I64">
					<dim>5</dim>
				</port>
			</output>
		</layer>
		<layer id="145" name="/backbone/stage2/stage2.0/Transpose" type="Transpose" version="opset1">
			<input>
				<port id="0" precision="FP32">
					<dim>1</dim>
					<dim>2</dim>
					<dim>88</dim>
					<dim>52</dim>
					<dim>52</dim>
				</port>
				<port id="1" precision="I64">
					<dim>5</dim>
				</port>
			</input>
			<output>
				<port id="2" precision="FP32" names="/backbone/stage2/stage2.0/Transpose_output_0">
					<dim>1</dim>
					<dim>88</dim>
					<dim>2</dim>
					<dim>52</dim>
					<dim>52</dim>
				</port>
			</output>
		</layer>
		<layer id="146" name="PPQ_Variable_14" type="Const" version="opset1">
			<data element_type="i64" shape="4" offset="17096" size="32" />
			<output>
				<port id="0" precision="I64" names="PPQ_Variable_14">
					<dim>4</dim>
				</port>
			</output>
		</layer>
		<layer id="147" name="/backbone/stage2/stage2.0/Reshape_1" type="Reshape" version="opset1">
			<data special_zero="true" />
			<input>
				<port id="0" precision="FP32">
					<dim>1</dim>
					<dim>88</dim>
					<dim>2</dim>
					<dim>52</dim>
					<dim>52</dim>
				</port>
				<port id="1" precision="I64">
					<dim>4</dim>
				</port>
			</input>
			<output>
				<port id="2" precision="FP32" names="/backbone/stage2/stage2.0/Reshape_1_output_0">
					<dim>1</dim>
					<dim>176</dim>
					<dim>52</dim>
					<dim>52</dim>
				</port>
			</output>
		</layer>
		<layer id="148" name="Constant_59485" type="Const" version="opset1">
			<data element_type="i64" shape="2" offset="17128" size="16" />
			<output>
				<port id="0" precision="I64">
					<dim>2</dim>
				</port>
			</output>
		</layer>
		<layer id="149" name="Constant_59488" type="Const" version="opset1">
			<data element_type="i64" shape="2" offset="17144" size="16" />
			<output>
				<port id="0" precision="I64">
					<dim>2</dim>
				</port>
			</output>
		</layer>
		<layer id="150" name="Constant_59491" type="Const" version="opset1">
			<data element_type="i64" shape="2" offset="17160" size="16" />
			<output>
				<port id="0" precision="I64">
					<dim>2</dim>
				</port>
			</output>
		</layer>
		<layer id="151" name="/backbone/stage2/stage2.1/Slice" type="StridedSlice" version="opset1">
			<data begin_mask="1, 0" end_mask="1, 0" new_axis_mask="" shrink_axis_mask="" ellipsis_mask="" />
			<input>
				<port id="0" precision="FP32">
					<dim>1</dim>
					<dim>176</dim>
					<dim>52</dim>
					<dim>52</dim>
				</port>
				<port id="1" precision="I64">
					<dim>2</dim>
				</port>
				<port id="2" precision="I64">
					<dim>2</dim>
				</port>
				<port id="3" precision="I64">
					<dim>2</dim>
				</port>
			</input>
			<output>
				<port id="4" precision="FP32" names="PPQ_Variable_210">
					<dim>1</dim>
					<dim>88</dim>
					<dim>52</dim>
					<dim>52</dim>
				</port>
			</output>
		</layer>
		<layer id="152" name="Constant_63292" type="Const" version="opset1">
			<data element_type="f32" shape="1, 1, 1, 1" offset="17176" size="4" />
			<output>
				<port id="0" precision="FP32">
					<dim>1</dim>
					<dim>1</dim>
					<dim>1</dim>
					<dim>1</dim>
				</port>
			</output>
		</layer>
		<layer id="153" name="Constant_63293" type="Const" version="opset1">
			<data element_type="f32" shape="1, 1, 1, 1" offset="17180" size="4" />
			<output>
				<port id="0" precision="FP32">
					<dim>1</dim>
					<dim>1</dim>
					<dim>1</dim>
					<dim>1</dim>
				</port>
			</output>
		</layer>
		<layer id="154" name="Constant_63294" type="Const" version="opset1">
			<data element_type="f32" shape="1, 1, 1, 1" offset="17176" size="4" />
			<output>
				<port id="0" precision="FP32">
					<dim>1</dim>
					<dim>1</dim>
					<dim>1</dim>
					<dim>1</dim>
				</port>
			</output>
		</layer>
		<layer id="155" name="Constant_63295" type="Const" version="opset1">
			<data element_type="f32" shape="1, 1, 1, 1" offset="17180" size="4" />
			<output>
				<port id="0" precision="FP32">
					<dim>1</dim>
					<dim>1</dim>
					<dim>1</dim>
					<dim>1</dim>
				</port>
			</output>
		</layer>
		<layer id="156" name="PPQ_Operation_31" type="FakeQuantize" version="opset1">
			<data levels="256" auto_broadcast="numpy" />
			<input>
				<port id="0" precision="FP32">
					<dim>1</dim>
					<dim>88</dim>
					<dim>52</dim>
					<dim>52</dim>
				</port>
				<port id="1" precision="FP32">
					<dim>1</dim>
					<dim>1</dim>
					<dim>1</dim>
					<dim>1</dim>
				</port>
				<port id="2" precision="FP32">
					<dim>1</dim>
					<dim>1</dim>
					<dim>1</dim>
					<dim>1</dim>
				</port>
				<port id="3" precision="FP32">
					<dim>1</dim>
					<dim>1</dim>
					<dim>1</dim>
					<dim>1</dim>
				</port>
				<port id="4" precision="FP32">
					<dim>1</dim>
					<dim>1</dim>
					<dim>1</dim>
					<dim>1</dim>
				</port>
			</input>
			<output>
				<port id="5" precision="FP32" names="/backbone/stage2/stage2.1/Slice_output_0">
					<dim>1</dim>
					<dim>88</dim>
					<dim>52</dim>
					<dim>52</dim>
				</port>
			</output>
		</layer>
		<layer id="157" name="Constant_59497" type="Const" version="opset1">
			<data element_type="i64" shape="2" offset="17144" size="16" />
			<output>
				<port id="0" precision="I64">
					<dim>2</dim>
				</port>
			</output>
		</layer>
		<layer id="158" name="Constant_59500" type="Const" version="opset1">
			<data element_type="i64" shape="2" offset="17184" size="16" />
			<output>
				<port id="0" precision="I64">
					<dim>2</dim>
				</port>
			</output>
		</layer>
		<layer id="159" name="Constant_59503" type="Const" version="opset1">
			<data element_type="i64" shape="2" offset="17160" size="16" />
			<output>
				<port id="0" precision="I64">
					<dim>2</dim>
				</port>
			</output>
		</layer>
		<layer id="160" name="/backbone/stage2/stage2.1/Slice_1" type="StridedSlice" version="opset1">
			<data begin_mask="1, 0" end_mask="1, 0" new_axis_mask="" shrink_axis_mask="" ellipsis_mask="" />
			<input>
				<port id="0" precision="FP32">
					<dim>1</dim>
					<dim>176</dim>
					<dim>52</dim>
					<dim>52</dim>
				</port>
				<port id="1" precision="I64">
					<dim>2</dim>
				</port>
				<port id="2" precision="I64">
					<dim>2</dim>
				</port>
				<port id="3" precision="I64">
					<dim>2</dim>
				</port>
			</input>
			<output>
				<port id="4" precision="FP32" names="PPQ_Variable_216">
					<dim>1</dim>
					<dim>88</dim>
					<dim>52</dim>
					<dim>52</dim>
				</port>
			</output>
		</layer>
		<layer id="161" name="Constant_63296" type="Const" version="opset1">
			<data element_type="f32" shape="1, 1, 1, 1" offset="17200" size="4" />
			<output>
				<port id="0" precision="FP32">
					<dim>1</dim>
					<dim>1</dim>
					<dim>1</dim>
					<dim>1</dim>
				</port>
			</output>
		</layer>
		<layer id="162" name="Constant_63297" type="Const" version="opset1">
			<data element_type="f32" shape="1, 1, 1, 1" offset="17204" size="4" />
			<output>
				<port id="0" precision="FP32">
					<dim>1</dim>
					<dim>1</dim>
					<dim>1</dim>
					<dim>1</dim>
				</port>
			</output>
		</layer>
		<layer id="163" name="Constant_63298" type="Const" version="opset1">
			<data element_type="f32" shape="1, 1, 1, 1" offset="17200" size="4" />
			<output>
				<port id="0" precision="FP32">
					<dim>1</dim>
					<dim>1</dim>
					<dim>1</dim>
					<dim>1</dim>
				</port>
			</output>
		</layer>
		<layer id="164" name="Constant_63299" type="Const" version="opset1">
			<data element_type="f32" shape="1, 1, 1, 1" offset="17204" size="4" />
			<output>
				<port id="0" precision="FP32">
					<dim>1</dim>
					<dim>1</dim>
					<dim>1</dim>
					<dim>1</dim>
				</port>
			</output>
		</layer>
		<layer id="165" name="PPQ_Operation_33" type="FakeQuantize" version="opset1">
			<data levels="256" auto_broadcast="numpy" />
			<input>
				<port id="0" precision="FP32">
					<dim>1</dim>
					<dim>88</dim>
					<dim>52</dim>
					<dim>52</dim>
				</port>
				<port id="1" precision="FP32">
					<dim>1</dim>
					<dim>1</dim>
					<dim>1</dim>
					<dim>1</dim>
				</port>
				<port id="2" precision="FP32">
					<dim>1</dim>
					<dim>1</dim>
					<dim>1</dim>
					<dim>1</dim>
				</port>
				<port id="3" precision="FP32">
					<dim>1</dim>
					<dim>1</dim>
					<dim>1</dim>
					<dim>1</dim>
				</port>
				<port id="4" precision="FP32">
					<dim>1</dim>
					<dim>1</dim>
					<dim>1</dim>
					<dim>1</dim>
				</port>
			</input>
			<output>
				<port id="5" precision="FP32" names="/backbone/stage2/stage2.1/Slice_1_output_0">
					<dim>1</dim>
					<dim>88</dim>
					<dim>52</dim>
					<dim>52</dim>
				</port>
			</output>
		</layer>
		<layer id="166" name="onnx::Conv_1551" type="Const" version="opset1">
			<data element_type="i8" shape="88, 88, 1, 1" offset="17208" size="7744" />
			<output>
				<port id="0" precision="I8" names="onnx::Conv_1551">
					<dim>88</dim>
					<dim>88</dim>
					<dim>1</dim>
					<dim>1</dim>
				</port>
			</output>
		</layer>
		<layer id="167" name="Convert_1704" type="Convert" version="opset1">
			<data destination_type="f32" />
			<input>
				<port id="0" precision="I8">
					<dim>88</dim>
					<dim>88</dim>
					<dim>1</dim>
					<dim>1</dim>
				</port>
			</input>
			<output>
				<port id="1" precision="FP32">
					<dim>88</dim>
					<dim>88</dim>
					<dim>1</dim>
					<dim>1</dim>
				</port>
			</output>
		</layer>
		<layer id="168" name="Reshape_1698" type="Const" version="opset1">
			<data element_type="f32" shape="88, 1, 1, 1" offset="24952" size="352" />
			<output>
				<port id="0" precision="FP32">
					<dim>88</dim>
					<dim>1</dim>
					<dim>1</dim>
					<dim>1</dim>
				</port>
			</output>
		</layer>
		<layer id="169" name="PPQ_Operation_34" type="Multiply" version="opset1">
			<data auto_broadcast="numpy" />
			<input>
				<port id="0" precision="FP32">
					<dim>88</dim>
					<dim>88</dim>
					<dim>1</dim>
					<dim>1</dim>
				</port>
				<port id="1" precision="FP32">
					<dim>88</dim>
					<dim>1</dim>
					<dim>1</dim>
					<dim>1</dim>
				</port>
			</input>
			<output>
				<port id="2" precision="FP32" names="PPQ_Variable_222">
					<dim>88</dim>
					<dim>88</dim>
					<dim>1</dim>
					<dim>1</dim>
				</port>
			</output>
		</layer>
		<layer id="170" name="/backbone/stage2/stage2.1/branch2/branch2.0/Conv/WithoutBiases" type="Convolution" version="opset1">
			<data strides="1, 1" dilations="1, 1" pads_begin="0, 0" pads_end="0, 0" auto_pad="explicit" />
			<input>
				<port id="0" precision="FP32">
					<dim>1</dim>
					<dim>88</dim>
					<dim>52</dim>
					<dim>52</dim>
				</port>
				<port id="1" precision="FP32">
					<dim>88</dim>
					<dim>88</dim>
					<dim>1</dim>
					<dim>1</dim>
				</port>
			</input>
			<output>
				<port id="2" precision="FP32">
					<dim>1</dim>
					<dim>88</dim>
					<dim>52</dim>
					<dim>52</dim>
				</port>
			</output>
		</layer>
		<layer id="171" name="Reshape_4765" type="Const" version="opset1">
			<data element_type="f32" shape="1, 88, 1, 1" offset="25304" size="352" />
			<output>
				<port id="0" precision="FP32">
					<dim>1</dim>
					<dim>88</dim>
					<dim>1</dim>
					<dim>1</dim>
				</port>
			</output>
		</layer>
		<layer id="172" name="/backbone/stage2/stage2.1/branch2/branch2.0/Conv" type="Add" version="opset1">
			<data auto_broadcast="numpy" />
			<input>
				<port id="0" precision="FP32">
					<dim>1</dim>
					<dim>88</dim>
					<dim>52</dim>
					<dim>52</dim>
				</port>
				<port id="1" precision="FP32">
					<dim>1</dim>
					<dim>88</dim>
					<dim>1</dim>
					<dim>1</dim>
				</port>
			</input>
			<output>
				<port id="2" precision="FP32" names="PPQ_Variable_225">
					<dim>1</dim>
					<dim>88</dim>
					<dim>52</dim>
					<dim>52</dim>
				</port>
			</output>
		</layer>
		<layer id="173" name="Constant_63300" type="Const" version="opset1">
			<data element_type="f32" shape="1, 1, 1, 1" offset="25656" size="4" />
			<output>
				<port id="0" precision="FP32">
					<dim>1</dim>
					<dim>1</dim>
					<dim>1</dim>
					<dim>1</dim>
				</port>
			</output>
		</layer>
		<layer id="174" name="Constant_63301" type="Const" version="opset1">
			<data element_type="f32" shape="1, 1, 1, 1" offset="25660" size="4" />
			<output>
				<port id="0" precision="FP32">
					<dim>1</dim>
					<dim>1</dim>
					<dim>1</dim>
					<dim>1</dim>
				</port>
			</output>
		</layer>
		<layer id="175" name="Constant_63302" type="Const" version="opset1">
			<data element_type="f32" shape="1, 1, 1, 1" offset="25656" size="4" />
			<output>
				<port id="0" precision="FP32">
					<dim>1</dim>
					<dim>1</dim>
					<dim>1</dim>
					<dim>1</dim>
				</port>
			</output>
		</layer>
		<layer id="176" name="Constant_63303" type="Const" version="opset1">
			<data element_type="f32" shape="1, 1, 1, 1" offset="25660" size="4" />
			<output>
				<port id="0" precision="FP32">
					<dim>1</dim>
					<dim>1</dim>
					<dim>1</dim>
					<dim>1</dim>
				</port>
			</output>
		</layer>
		<layer id="177" name="PPQ_Operation_36" type="FakeQuantize" version="opset1">
			<data levels="256" auto_broadcast="numpy" />
			<input>
				<port id="0" precision="FP32">
					<dim>1</dim>
					<dim>88</dim>
					<dim>52</dim>
					<dim>52</dim>
				</port>
				<port id="1" precision="FP32">
					<dim>1</dim>
					<dim>1</dim>
					<dim>1</dim>
					<dim>1</dim>
				</port>
				<port id="2" precision="FP32">
					<dim>1</dim>
					<dim>1</dim>
					<dim>1</dim>
					<dim>1</dim>
				</port>
				<port id="3" precision="FP32">
					<dim>1</dim>
					<dim>1</dim>
					<dim>1</dim>
					<dim>1</dim>
				</port>
				<port id="4" precision="FP32">
					<dim>1</dim>
					<dim>1</dim>
					<dim>1</dim>
					<dim>1</dim>
				</port>
			</input>
			<output>
				<port id="5" precision="FP32" names="/backbone/stage2/stage2.1/branch2/branch2.0/Conv_output_0">
					<dim>1</dim>
					<dim>88</dim>
					<dim>52</dim>
					<dim>52</dim>
				</port>
			</output>
		</layer>
		<layer id="178" name="Constant_4845" type="Const" version="opset1">
			<data element_type="f32" shape="1" offset="932" size="4" />
			<output>
				<port id="0" precision="FP32">
					<dim>1</dim>
				</port>
			</output>
		</layer>
		<layer id="179" name="/backbone/stage2/stage2.1/branch2/branch2.2/LeakyRelu" type="PReLU" version="opset1">
			<input>
				<port id="0" precision="FP32">
					<dim>1</dim>
					<dim>88</dim>
					<dim>52</dim>
					<dim>52</dim>
				</port>
				<port id="1" precision="FP32">
					<dim>1</dim>
				</port>
			</input>
			<output>
				<port id="2" precision="FP32" names="PPQ_Variable_231">
					<dim>1</dim>
					<dim>88</dim>
					<dim>52</dim>
					<dim>52</dim>
				</port>
			</output>
		</layer>
		<layer id="180" name="Constant_63304" type="Const" version="opset1">
			<data element_type="f32" shape="1, 1, 1, 1" offset="25664" size="4" />
			<output>
				<port id="0" precision="FP32">
					<dim>1</dim>
					<dim>1</dim>
					<dim>1</dim>
					<dim>1</dim>
				</port>
			</output>
		</layer>
		<layer id="181" name="Constant_63305" type="Const" version="opset1">
			<data element_type="f32" shape="1, 1, 1, 1" offset="25668" size="4" />
			<output>
				<port id="0" precision="FP32">
					<dim>1</dim>
					<dim>1</dim>
					<dim>1</dim>
					<dim>1</dim>
				</port>
			</output>
		</layer>
		<layer id="182" name="Constant_63306" type="Const" version="opset1">
			<data element_type="f32" shape="1, 1, 1, 1" offset="25664" size="4" />
			<output>
				<port id="0" precision="FP32">
					<dim>1</dim>
					<dim>1</dim>
					<dim>1</dim>
					<dim>1</dim>
				</port>
			</output>
		</layer>
		<layer id="183" name="Constant_63307" type="Const" version="opset1">
			<data element_type="f32" shape="1, 1, 1, 1" offset="25668" size="4" />
			<output>
				<port id="0" precision="FP32">
					<dim>1</dim>
					<dim>1</dim>
					<dim>1</dim>
					<dim>1</dim>
				</port>
			</output>
		</layer>
		<layer id="184" name="PPQ_Operation_38" type="FakeQuantize" version="opset1">
			<data levels="256" auto_broadcast="numpy" />
			<input>
				<port id="0" precision="FP32">
					<dim>1</dim>
					<dim>88</dim>
					<dim>52</dim>
					<dim>52</dim>
				</port>
				<port id="1" precision="FP32">
					<dim>1</dim>
					<dim>1</dim>
					<dim>1</dim>
					<dim>1</dim>
				</port>
				<port id="2" precision="FP32">
					<dim>1</dim>
					<dim>1</dim>
					<dim>1</dim>
					<dim>1</dim>
				</port>
				<port id="3" precision="FP32">
					<dim>1</dim>
					<dim>1</dim>
					<dim>1</dim>
					<dim>1</dim>
				</port>
				<port id="4" precision="FP32">
					<dim>1</dim>
					<dim>1</dim>
					<dim>1</dim>
					<dim>1</dim>
				</port>
			</input>
			<output>
				<port id="5" precision="FP32" names="/backbone/stage2/stage2.1/branch2/branch2.2/LeakyRelu_output_0">
					<dim>1</dim>
					<dim>88</dim>
					<dim>52</dim>
					<dim>52</dim>
				</port>
			</output>
		</layer>
		<layer id="185" name="onnx::Conv_1554" type="Const" version="opset1">
			<data element_type="i8" shape="88, 1, 3, 3" offset="25672" size="792" />
			<output>
				<port id="0" precision="I8" names="onnx::Conv_1554">
					<dim>88</dim>
					<dim>1</dim>
					<dim>3</dim>
					<dim>3</dim>
				</port>
			</output>
		</layer>
		<layer id="186" name="Convert_1722" type="Convert" version="opset1">
			<data destination_type="f32" />
			<input>
				<port id="0" precision="I8">
					<dim>88</dim>
					<dim>1</dim>
					<dim>3</dim>
					<dim>3</dim>
				</port>
			</input>
			<output>
				<port id="1" precision="FP32">
					<dim>88</dim>
					<dim>1</dim>
					<dim>3</dim>
					<dim>3</dim>
				</port>
			</output>
		</layer>
		<layer id="187" name="Reshape_1716" type="Const" version="opset1">
			<data element_type="f32" shape="88, 1, 1, 1" offset="26464" size="352" />
			<output>
				<port id="0" precision="FP32">
					<dim>88</dim>
					<dim>1</dim>
					<dim>1</dim>
					<dim>1</dim>
				</port>
			</output>
		</layer>
		<layer id="188" name="PPQ_Operation_39" type="Multiply" version="opset1">
			<data auto_broadcast="numpy" />
			<input>
				<port id="0" precision="FP32">
					<dim>88</dim>
					<dim>1</dim>
					<dim>3</dim>
					<dim>3</dim>
				</port>
				<port id="1" precision="FP32">
					<dim>88</dim>
					<dim>1</dim>
					<dim>1</dim>
					<dim>1</dim>
				</port>
			</input>
			<output>
				<port id="2" precision="FP32" names="PPQ_Variable_237">
					<dim>88</dim>
					<dim>1</dim>
					<dim>3</dim>
					<dim>3</dim>
				</port>
			</output>
		</layer>
		<layer id="189" name="Constant_4901" type="Const" version="opset1">
			<data element_type="i64" shape="1" offset="8192" size="8" />
			<output>
				<port id="0" precision="I64">
					<dim>1</dim>
				</port>
			</output>
		</layer>
		<layer id="190" name="ShapeOf_4902" type="ShapeOf" version="opset3">
			<data output_type="i64" />
			<input>
				<port id="0" precision="FP32">
					<dim>88</dim>
					<dim>1</dim>
					<dim>3</dim>
					<dim>3</dim>
				</port>
			</input>
			<output>
				<port id="1" precision="I64">
					<dim>4</dim>
				</port>
			</output>
		</layer>
		<layer id="191" name="Constant_4899" type="Const" version="opset1">
			<data element_type="i64" shape="" offset="1256" size="8" />
			<output>
				<port id="0" precision="I64" />
			</output>
		</layer>
		<layer id="192" name="Constant_4900" type="Const" version="opset1">
			<data element_type="i64" shape="2" offset="1264" size="16" />
			<output>
				<port id="0" precision="I64">
					<dim>2</dim>
				</port>
			</output>
		</layer>
		<layer id="193" name="VariadicSplit_4903" type="VariadicSplit" version="opset1">
			<input>
				<port id="0" precision="I64">
					<dim>4</dim>
				</port>
				<port id="1" precision="I64" />
				<port id="2" precision="I64">
					<dim>2</dim>
				</port>
			</input>
			<output>
				<port id="3" precision="I64">
					<dim>1</dim>
				</port>
				<port id="4" precision="I64">
					<dim>3</dim>
				</port>
			</output>
		</layer>
		<layer id="194" name="Divide_4904" type="Divide" version="opset1">
			<data auto_broadcast="numpy" m_pythondiv="true" />
			<input>
				<port id="0" precision="I64">
					<dim>1</dim>
				</port>
				<port id="1" precision="I64">
					<dim>1</dim>
				</port>
			</input>
			<output>
				<port id="2" precision="I64">
					<dim>1</dim>
				</port>
			</output>
		</layer>
		<layer id="195" name="Concat_4905" type="Concat" version="opset1">
			<data axis="0" />
			<input>
				<port id="0" precision="I64">
					<dim>1</dim>
				</port>
				<port id="1" precision="I64">
					<dim>1</dim>
				</port>
				<port id="2" precision="I64">
					<dim>3</dim>
				</port>
			</input>
			<output>
				<port id="3" precision="I64">
					<dim>5</dim>
				</port>
			</output>
		</layer>
		<layer id="196" name="Reshape_4906" type="Reshape" version="opset1">
			<data special_zero="false" />
			<input>
				<port id="0" precision="FP32">
					<dim>88</dim>
					<dim>1</dim>
					<dim>3</dim>
					<dim>3</dim>
				</port>
				<port id="1" precision="I64">
					<dim>5</dim>
				</port>
			</input>
			<output>
				<port id="2" precision="FP32">
					<dim>88</dim>
					<dim>1</dim>
					<dim>1</dim>
					<dim>3</dim>
					<dim>3</dim>
				</port>
			</output>
		</layer>
		<layer id="197" name="/backbone/stage2/stage2.1/branch2/branch2.3/Conv/WithoutBiases" type="GroupConvolution" version="opset1">
			<data strides="1, 1" pads_begin="1, 1" pads_end="1, 1" dilations="1, 1" auto_pad="explicit" />
			<input>
				<port id="0" precision="FP32">
					<dim>1</dim>
					<dim>88</dim>
					<dim>52</dim>
					<dim>52</dim>
				</port>
				<port id="1" precision="FP32">
					<dim>88</dim>
					<dim>1</dim>
					<dim>1</dim>
					<dim>3</dim>
					<dim>3</dim>
				</port>
			</input>
			<output>
				<port id="2" precision="FP32">
					<dim>1</dim>
					<dim>88</dim>
					<dim>52</dim>
					<dim>52</dim>
				</port>
			</output>
		</layer>
		<layer id="198" name="Reshape_4992" type="Const" version="opset1">
			<data element_type="f32" shape="1, 88, 1, 1" offset="26816" size="352" />
			<output>
				<port id="0" precision="FP32">
					<dim>1</dim>
					<dim>88</dim>
					<dim>1</dim>
					<dim>1</dim>
				</port>
			</output>
		</layer>
		<layer id="199" name="/backbone/stage2/stage2.1/branch2/branch2.3/Conv" type="Add" version="opset1">
			<data auto_broadcast="numpy" />
			<input>
				<port id="0" precision="FP32">
					<dim>1</dim>
					<dim>88</dim>
					<dim>52</dim>
					<dim>52</dim>
				</port>
				<port id="1" precision="FP32">
					<dim>1</dim>
					<dim>88</dim>
					<dim>1</dim>
					<dim>1</dim>
				</port>
			</input>
			<output>
				<port id="2" precision="FP32" names="PPQ_Variable_240">
					<dim>1</dim>
					<dim>88</dim>
					<dim>52</dim>
					<dim>52</dim>
				</port>
			</output>
		</layer>
		<layer id="200" name="Constant_63308" type="Const" version="opset1">
			<data element_type="f32" shape="1, 1, 1, 1" offset="27168" size="4" />
			<output>
				<port id="0" precision="FP32">
					<dim>1</dim>
					<dim>1</dim>
					<dim>1</dim>
					<dim>1</dim>
				</port>
			</output>
		</layer>
		<layer id="201" name="Constant_63309" type="Const" version="opset1">
			<data element_type="f32" shape="1, 1, 1, 1" offset="27172" size="4" />
			<output>
				<port id="0" precision="FP32">
					<dim>1</dim>
					<dim>1</dim>
					<dim>1</dim>
					<dim>1</dim>
				</port>
			</output>
		</layer>
		<layer id="202" name="Constant_63310" type="Const" version="opset1">
			<data element_type="f32" shape="1, 1, 1, 1" offset="27168" size="4" />
			<output>
				<port id="0" precision="FP32">
					<dim>1</dim>
					<dim>1</dim>
					<dim>1</dim>
					<dim>1</dim>
				</port>
			</output>
		</layer>
		<layer id="203" name="Constant_63311" type="Const" version="opset1">
			<data element_type="f32" shape="1, 1, 1, 1" offset="27172" size="4" />
			<output>
				<port id="0" precision="FP32">
					<dim>1</dim>
					<dim>1</dim>
					<dim>1</dim>
					<dim>1</dim>
				</port>
			</output>
		</layer>
		<layer id="204" name="PPQ_Operation_41" type="FakeQuantize" version="opset1">
			<data levels="256" auto_broadcast="numpy" />
			<input>
				<port id="0" precision="FP32">
					<dim>1</dim>
					<dim>88</dim>
					<dim>52</dim>
					<dim>52</dim>
				</port>
				<port id="1" precision="FP32">
					<dim>1</dim>
					<dim>1</dim>
					<dim>1</dim>
					<dim>1</dim>
				</port>
				<port id="2" precision="FP32">
					<dim>1</dim>
					<dim>1</dim>
					<dim>1</dim>
					<dim>1</dim>
				</port>
				<port id="3" precision="FP32">
					<dim>1</dim>
					<dim>1</dim>
					<dim>1</dim>
					<dim>1</dim>
				</port>
				<port id="4" precision="FP32">
					<dim>1</dim>
					<dim>1</dim>
					<dim>1</dim>
					<dim>1</dim>
				</port>
			</input>
			<output>
				<port id="5" precision="FP32" names="/backbone/stage2/stage2.1/branch2/branch2.3/Conv_output_0">
					<dim>1</dim>
					<dim>88</dim>
					<dim>52</dim>
					<dim>52</dim>
				</port>
			</output>
		</layer>
		<layer id="205" name="onnx::Conv_1557" type="Const" version="opset1">
			<data element_type="i8" shape="88, 88, 1, 1" offset="27176" size="7744" />
			<output>
				<port id="0" precision="I8" names="onnx::Conv_1557">
					<dim>88</dim>
					<dim>88</dim>
					<dim>1</dim>
					<dim>1</dim>
				</port>
			</output>
		</layer>
		<layer id="206" name="Convert_1740" type="Convert" version="opset1">
			<data destination_type="f32" />
			<input>
				<port id="0" precision="I8">
					<dim>88</dim>
					<dim>88</dim>
					<dim>1</dim>
					<dim>1</dim>
				</port>
			</input>
			<output>
				<port id="1" precision="FP32">
					<dim>88</dim>
					<dim>88</dim>
					<dim>1</dim>
					<dim>1</dim>
				</port>
			</output>
		</layer>
		<layer id="207" name="Reshape_1734" type="Const" version="opset1">
			<data element_type="f32" shape="88, 1, 1, 1" offset="34920" size="352" />
			<output>
				<port id="0" precision="FP32">
					<dim>88</dim>
					<dim>1</dim>
					<dim>1</dim>
					<dim>1</dim>
				</port>
			</output>
		</layer>
		<layer id="208" name="PPQ_Operation_42" type="Multiply" version="opset1">
			<data auto_broadcast="numpy" />
			<input>
				<port id="0" precision="FP32">
					<dim>88</dim>
					<dim>88</dim>
					<dim>1</dim>
					<dim>1</dim>
				</port>
				<port id="1" precision="FP32">
					<dim>88</dim>
					<dim>1</dim>
					<dim>1</dim>
					<dim>1</dim>
				</port>
			</input>
			<output>
				<port id="2" precision="FP32" names="PPQ_Variable_246">
					<dim>88</dim>
					<dim>88</dim>
					<dim>1</dim>
					<dim>1</dim>
				</port>
			</output>
		</layer>
		<layer id="209" name="/backbone/stage2/stage2.1/branch2/branch2.5/Conv/WithoutBiases" type="Convolution" version="opset1">
			<data strides="1, 1" dilations="1, 1" pads_begin="0, 0" pads_end="0, 0" auto_pad="explicit" />
			<input>
				<port id="0" precision="FP32">
					<dim>1</dim>
					<dim>88</dim>
					<dim>52</dim>
					<dim>52</dim>
				</port>
				<port id="1" precision="FP32">
					<dim>88</dim>
					<dim>88</dim>
					<dim>1</dim>
					<dim>1</dim>
				</port>
			</input>
			<output>
				<port id="2" precision="FP32">
					<dim>1</dim>
					<dim>88</dim>
					<dim>52</dim>
					<dim>52</dim>
				</port>
			</output>
		</layer>
		<layer id="210" name="Reshape_5092" type="Const" version="opset1">
			<data element_type="f32" shape="1, 88, 1, 1" offset="35272" size="352" />
			<output>
				<port id="0" precision="FP32">
					<dim>1</dim>
					<dim>88</dim>
					<dim>1</dim>
					<dim>1</dim>
				</port>
			</output>
		</layer>
		<layer id="211" name="/backbone/stage2/stage2.1/branch2/branch2.5/Conv" type="Add" version="opset1">
			<data auto_broadcast="numpy" />
			<input>
				<port id="0" precision="FP32">
					<dim>1</dim>
					<dim>88</dim>
					<dim>52</dim>
					<dim>52</dim>
				</port>
				<port id="1" precision="FP32">
					<dim>1</dim>
					<dim>88</dim>
					<dim>1</dim>
					<dim>1</dim>
				</port>
			</input>
			<output>
				<port id="2" precision="FP32" names="PPQ_Variable_249">
					<dim>1</dim>
					<dim>88</dim>
					<dim>52</dim>
					<dim>52</dim>
				</port>
			</output>
		</layer>
		<layer id="212" name="Constant_63312" type="Const" version="opset1">
			<data element_type="f32" shape="1, 1, 1, 1" offset="35624" size="4" />
			<output>
				<port id="0" precision="FP32">
					<dim>1</dim>
					<dim>1</dim>
					<dim>1</dim>
					<dim>1</dim>
				</port>
			</output>
		</layer>
		<layer id="213" name="Constant_63313" type="Const" version="opset1">
			<data element_type="f32" shape="1, 1, 1, 1" offset="35628" size="4" />
			<output>
				<port id="0" precision="FP32">
					<dim>1</dim>
					<dim>1</dim>
					<dim>1</dim>
					<dim>1</dim>
				</port>
			</output>
		</layer>
		<layer id="214" name="Constant_63314" type="Const" version="opset1">
			<data element_type="f32" shape="1, 1, 1, 1" offset="35624" size="4" />
			<output>
				<port id="0" precision="FP32">
					<dim>1</dim>
					<dim>1</dim>
					<dim>1</dim>
					<dim>1</dim>
				</port>
			</output>
		</layer>
		<layer id="215" name="Constant_63315" type="Const" version="opset1">
			<data element_type="f32" shape="1, 1, 1, 1" offset="35628" size="4" />
			<output>
				<port id="0" precision="FP32">
					<dim>1</dim>
					<dim>1</dim>
					<dim>1</dim>
					<dim>1</dim>
				</port>
			</output>
		</layer>
		<layer id="216" name="PPQ_Operation_44" type="FakeQuantize" version="opset1">
			<data levels="256" auto_broadcast="numpy" />
			<input>
				<port id="0" precision="FP32">
					<dim>1</dim>
					<dim>88</dim>
					<dim>52</dim>
					<dim>52</dim>
				</port>
				<port id="1" precision="FP32">
					<dim>1</dim>
					<dim>1</dim>
					<dim>1</dim>
					<dim>1</dim>
				</port>
				<port id="2" precision="FP32">
					<dim>1</dim>
					<dim>1</dim>
					<dim>1</dim>
					<dim>1</dim>
				</port>
				<port id="3" precision="FP32">
					<dim>1</dim>
					<dim>1</dim>
					<dim>1</dim>
					<dim>1</dim>
				</port>
				<port id="4" precision="FP32">
					<dim>1</dim>
					<dim>1</dim>
					<dim>1</dim>
					<dim>1</dim>
				</port>
			</input>
			<output>
				<port id="5" precision="FP32" names="/backbone/stage2/stage2.1/branch2/branch2.5/Conv_output_0">
					<dim>1</dim>
					<dim>88</dim>
					<dim>52</dim>
					<dim>52</dim>
				</port>
			</output>
		</layer>
		<layer id="217" name="Constant_5172" type="Const" version="opset1">
			<data element_type="f32" shape="1" offset="932" size="4" />
			<output>
				<port id="0" precision="FP32">
					<dim>1</dim>
				</port>
			</output>
		</layer>
		<layer id="218" name="/backbone/stage2/stage2.1/branch2/branch2.7/LeakyRelu" type="PReLU" version="opset1">
			<input>
				<port id="0" precision="FP32">
					<dim>1</dim>
					<dim>88</dim>
					<dim>52</dim>
					<dim>52</dim>
				</port>
				<port id="1" precision="FP32">
					<dim>1</dim>
				</port>
			</input>
			<output>
				<port id="2" precision="FP32" names="PPQ_Variable_255">
					<dim>1</dim>
					<dim>88</dim>
					<dim>52</dim>
					<dim>52</dim>
				</port>
			</output>
		</layer>
		<layer id="219" name="Constant_63316" type="Const" version="opset1">
			<data element_type="f32" shape="1, 1, 1, 1" offset="17176" size="4" />
			<output>
				<port id="0" precision="FP32">
					<dim>1</dim>
					<dim>1</dim>
					<dim>1</dim>
					<dim>1</dim>
				</port>
			</output>
		</layer>
		<layer id="220" name="Constant_63317" type="Const" version="opset1">
			<data element_type="f32" shape="1, 1, 1, 1" offset="17180" size="4" />
			<output>
				<port id="0" precision="FP32">
					<dim>1</dim>
					<dim>1</dim>
					<dim>1</dim>
					<dim>1</dim>
				</port>
			</output>
		</layer>
		<layer id="221" name="Constant_63318" type="Const" version="opset1">
			<data element_type="f32" shape="1, 1, 1, 1" offset="17176" size="4" />
			<output>
				<port id="0" precision="FP32">
					<dim>1</dim>
					<dim>1</dim>
					<dim>1</dim>
					<dim>1</dim>
				</port>
			</output>
		</layer>
		<layer id="222" name="Constant_63319" type="Const" version="opset1">
			<data element_type="f32" shape="1, 1, 1, 1" offset="17180" size="4" />
			<output>
				<port id="0" precision="FP32">
					<dim>1</dim>
					<dim>1</dim>
					<dim>1</dim>
					<dim>1</dim>
				</port>
			</output>
		</layer>
		<layer id="223" name="PPQ_Operation_46" type="FakeQuantize" version="opset1">
			<data levels="256" auto_broadcast="numpy" />
			<input>
				<port id="0" precision="FP32">
					<dim>1</dim>
					<dim>88</dim>
					<dim>52</dim>
					<dim>52</dim>
				</port>
				<port id="1" precision="FP32">
					<dim>1</dim>
					<dim>1</dim>
					<dim>1</dim>
					<dim>1</dim>
				</port>
				<port id="2" precision="FP32">
					<dim>1</dim>
					<dim>1</dim>
					<dim>1</dim>
					<dim>1</dim>
				</port>
				<port id="3" precision="FP32">
					<dim>1</dim>
					<dim>1</dim>
					<dim>1</dim>
					<dim>1</dim>
				</port>
				<port id="4" precision="FP32">
					<dim>1</dim>
					<dim>1</dim>
					<dim>1</dim>
					<dim>1</dim>
				</port>
			</input>
			<output>
				<port id="5" precision="FP32" names="/backbone/stage2/stage2.1/branch2/branch2.7/LeakyRelu_output_0">
					<dim>1</dim>
					<dim>88</dim>
					<dim>52</dim>
					<dim>52</dim>
				</port>
			</output>
		</layer>
		<layer id="224" name="/backbone/stage2/stage2.1/Concat" type="Concat" version="opset1">
			<data axis="1" />
			<input>
				<port id="0" precision="FP32">
					<dim>1</dim>
					<dim>88</dim>
					<dim>52</dim>
					<dim>52</dim>
				</port>
				<port id="1" precision="FP32">
					<dim>1</dim>
					<dim>88</dim>
					<dim>52</dim>
					<dim>52</dim>
				</port>
			</input>
			<output>
				<port id="2" precision="FP32" names="PPQ_Variable_261">
					<dim>1</dim>
					<dim>176</dim>
					<dim>52</dim>
					<dim>52</dim>
				</port>
			</output>
		</layer>
		<layer id="225" name="Constant_63320" type="Const" version="opset1">
			<data element_type="f32" shape="1, 1, 1, 1" offset="17176" size="4" />
			<output>
				<port id="0" precision="FP32">
					<dim>1</dim>
					<dim>1</dim>
					<dim>1</dim>
					<dim>1</dim>
				</port>
			</output>
		</layer>
		<layer id="226" name="Constant_63321" type="Const" version="opset1">
			<data element_type="f32" shape="1, 1, 1, 1" offset="17180" size="4" />
			<output>
				<port id="0" precision="FP32">
					<dim>1</dim>
					<dim>1</dim>
					<dim>1</dim>
					<dim>1</dim>
				</port>
			</output>
		</layer>
		<layer id="227" name="Constant_63322" type="Const" version="opset1">
			<data element_type="f32" shape="1, 1, 1, 1" offset="17176" size="4" />
			<output>
				<port id="0" precision="FP32">
					<dim>1</dim>
					<dim>1</dim>
					<dim>1</dim>
					<dim>1</dim>
				</port>
			</output>
		</layer>
		<layer id="228" name="Constant_63323" type="Const" version="opset1">
			<data element_type="f32" shape="1, 1, 1, 1" offset="17180" size="4" />
			<output>
				<port id="0" precision="FP32">
					<dim>1</dim>
					<dim>1</dim>
					<dim>1</dim>
					<dim>1</dim>
				</port>
			</output>
		</layer>
		<layer id="229" name="PPQ_Operation_48" type="FakeQuantize" version="opset1">
			<data levels="256" auto_broadcast="numpy" />
			<input>
				<port id="0" precision="FP32">
					<dim>1</dim>
					<dim>176</dim>
					<dim>52</dim>
					<dim>52</dim>
				</port>
				<port id="1" precision="FP32">
					<dim>1</dim>
					<dim>1</dim>
					<dim>1</dim>
					<dim>1</dim>
				</port>
				<port id="2" precision="FP32">
					<dim>1</dim>
					<dim>1</dim>
					<dim>1</dim>
					<dim>1</dim>
				</port>
				<port id="3" precision="FP32">
					<dim>1</dim>
					<dim>1</dim>
					<dim>1</dim>
					<dim>1</dim>
				</port>
				<port id="4" precision="FP32">
					<dim>1</dim>
					<dim>1</dim>
					<dim>1</dim>
					<dim>1</dim>
				</port>
			</input>
			<output>
				<port id="5" precision="FP32" names="/backbone/stage2/stage2.1/Concat_output_0">
					<dim>1</dim>
					<dim>176</dim>
					<dim>52</dim>
					<dim>52</dim>
				</port>
			</output>
		</layer>
		<layer id="230" name="PPQ_Variable_1" type="Const" version="opset1">
			<data element_type="i64" shape="5" offset="17016" size="40" />
			<output>
				<port id="0" precision="I64" names="PPQ_Variable_1">
					<dim>5</dim>
				</port>
			</output>
		</layer>
		<layer id="231" name="/backbone/stage2/stage2.1/Reshape" type="Reshape" version="opset1">
			<data special_zero="true" />
			<input>
				<port id="0" precision="FP32">
					<dim>1</dim>
					<dim>176</dim>
					<dim>52</dim>
					<dim>52</dim>
				</port>
				<port id="1" precision="I64">
					<dim>5</dim>
				</port>
			</input>
			<output>
				<port id="2" precision="FP32" names="/backbone/stage2/stage2.1/Reshape_output_0">
					<dim>1</dim>
					<dim>2</dim>
					<dim>88</dim>
					<dim>52</dim>
					<dim>52</dim>
				</port>
			</output>
		</layer>
		<layer id="232" name="Constant_5285" type="Const" version="opset1">
			<data element_type="i64" shape="5" offset="17056" size="40" />
			<output>
				<port id="0" precision="I64">
					<dim>5</dim>
				</port>
			</output>
		</layer>
		<layer id="233" name="/backbone/stage2/stage2.1/Transpose" type="Transpose" version="opset1">
			<input>
				<port id="0" precision="FP32">
					<dim>1</dim>
					<dim>2</dim>
					<dim>88</dim>
					<dim>52</dim>
					<dim>52</dim>
				</port>
				<port id="1" precision="I64">
					<dim>5</dim>
				</port>
			</input>
			<output>
				<port id="2" precision="FP32" names="/backbone/stage2/stage2.1/Transpose_output_0">
					<dim>1</dim>
					<dim>88</dim>
					<dim>2</dim>
					<dim>52</dim>
					<dim>52</dim>
				</port>
			</output>
		</layer>
		<layer id="234" name="PPQ_Variable_15" type="Const" version="opset1">
			<data element_type="i64" shape="4" offset="17096" size="32" />
			<output>
				<port id="0" precision="I64" names="PPQ_Variable_15">
					<dim>4</dim>
				</port>
			</output>
		</layer>
		<layer id="235" name="/backbone/stage2/stage2.1/Reshape_1" type="Reshape" version="opset1">
			<data special_zero="true" />
			<input>
				<port id="0" precision="FP32">
					<dim>1</dim>
					<dim>88</dim>
					<dim>2</dim>
					<dim>52</dim>
					<dim>52</dim>
				</port>
				<port id="1" precision="I64">
					<dim>4</dim>
				</port>
			</input>
			<output>
				<port id="2" precision="FP32" names="/backbone/stage2/stage2.1/Reshape_1_output_0">
					<dim>1</dim>
					<dim>176</dim>
					<dim>52</dim>
					<dim>52</dim>
				</port>
			</output>
		</layer>
		<layer id="236" name="Constant_59509" type="Const" version="opset1">
			<data element_type="i64" shape="2" offset="17128" size="16" />
			<output>
				<port id="0" precision="I64">
					<dim>2</dim>
				</port>
			</output>
		</layer>
		<layer id="237" name="Constant_59512" type="Const" version="opset1">
			<data element_type="i64" shape="2" offset="17144" size="16" />
			<output>
				<port id="0" precision="I64">
					<dim>2</dim>
				</port>
			</output>
		</layer>
		<layer id="238" name="Constant_59515" type="Const" version="opset1">
			<data element_type="i64" shape="2" offset="17160" size="16" />
			<output>
				<port id="0" precision="I64">
					<dim>2</dim>
				</port>
			</output>
		</layer>
		<layer id="239" name="/backbone/stage2/stage2.2/Slice" type="StridedSlice" version="opset1">
			<data begin_mask="1, 0" end_mask="1, 0" new_axis_mask="" shrink_axis_mask="" ellipsis_mask="" />
			<input>
				<port id="0" precision="FP32">
					<dim>1</dim>
					<dim>176</dim>
					<dim>52</dim>
					<dim>52</dim>
				</port>
				<port id="1" precision="I64">
					<dim>2</dim>
				</port>
				<port id="2" precision="I64">
					<dim>2</dim>
				</port>
				<port id="3" precision="I64">
					<dim>2</dim>
				</port>
			</input>
			<output>
				<port id="4" precision="FP32" names="PPQ_Variable_267">
					<dim>1</dim>
					<dim>88</dim>
					<dim>52</dim>
					<dim>52</dim>
				</port>
			</output>
		</layer>
		<layer id="240" name="Constant_63324" type="Const" version="opset1">
			<data element_type="f32" shape="1, 1, 1, 1" offset="35632" size="4" />
			<output>
				<port id="0" precision="FP32">
					<dim>1</dim>
					<dim>1</dim>
					<dim>1</dim>
					<dim>1</dim>
				</port>
			</output>
		</layer>
		<layer id="241" name="Constant_63325" type="Const" version="opset1">
			<data element_type="f32" shape="1, 1, 1, 1" offset="35636" size="4" />
			<output>
				<port id="0" precision="FP32">
					<dim>1</dim>
					<dim>1</dim>
					<dim>1</dim>
					<dim>1</dim>
				</port>
			</output>
		</layer>
		<layer id="242" name="Constant_63326" type="Const" version="opset1">
			<data element_type="f32" shape="1, 1, 1, 1" offset="35632" size="4" />
			<output>
				<port id="0" precision="FP32">
					<dim>1</dim>
					<dim>1</dim>
					<dim>1</dim>
					<dim>1</dim>
				</port>
			</output>
		</layer>
		<layer id="243" name="Constant_63327" type="Const" version="opset1">
			<data element_type="f32" shape="1, 1, 1, 1" offset="35636" size="4" />
			<output>
				<port id="0" precision="FP32">
					<dim>1</dim>
					<dim>1</dim>
					<dim>1</dim>
					<dim>1</dim>
				</port>
			</output>
		</layer>
		<layer id="244" name="PPQ_Operation_50" type="FakeQuantize" version="opset1">
			<data levels="256" auto_broadcast="numpy" />
			<input>
				<port id="0" precision="FP32">
					<dim>1</dim>
					<dim>88</dim>
					<dim>52</dim>
					<dim>52</dim>
				</port>
				<port id="1" precision="FP32">
					<dim>1</dim>
					<dim>1</dim>
					<dim>1</dim>
					<dim>1</dim>
				</port>
				<port id="2" precision="FP32">
					<dim>1</dim>
					<dim>1</dim>
					<dim>1</dim>
					<dim>1</dim>
				</port>
				<port id="3" precision="FP32">
					<dim>1</dim>
					<dim>1</dim>
					<dim>1</dim>
					<dim>1</dim>
				</port>
				<port id="4" precision="FP32">
					<dim>1</dim>
					<dim>1</dim>
					<dim>1</dim>
					<dim>1</dim>
				</port>
			</input>
			<output>
				<port id="5" precision="FP32" names="/backbone/stage2/stage2.2/Slice_output_0">
					<dim>1</dim>
					<dim>88</dim>
					<dim>52</dim>
					<dim>52</dim>
				</port>
			</output>
		</layer>
		<layer id="245" name="Constant_59521" type="Const" version="opset1">
			<data element_type="i64" shape="2" offset="17144" size="16" />
			<output>
				<port id="0" precision="I64">
					<dim>2</dim>
				</port>
			</output>
		</layer>
		<layer id="246" name="Constant_59524" type="Const" version="opset1">
			<data element_type="i64" shape="2" offset="17184" size="16" />
			<output>
				<port id="0" precision="I64">
					<dim>2</dim>
				</port>
			</output>
		</layer>
		<layer id="247" name="Constant_59527" type="Const" version="opset1">
			<data element_type="i64" shape="2" offset="17160" size="16" />
			<output>
				<port id="0" precision="I64">
					<dim>2</dim>
				</port>
			</output>
		</layer>
		<layer id="248" name="/backbone/stage2/stage2.2/Slice_1" type="StridedSlice" version="opset1">
			<data begin_mask="1, 0" end_mask="1, 0" new_axis_mask="" shrink_axis_mask="" ellipsis_mask="" />
			<input>
				<port id="0" precision="FP32">
					<dim>1</dim>
					<dim>176</dim>
					<dim>52</dim>
					<dim>52</dim>
				</port>
				<port id="1" precision="I64">
					<dim>2</dim>
				</port>
				<port id="2" precision="I64">
					<dim>2</dim>
				</port>
				<port id="3" precision="I64">
					<dim>2</dim>
				</port>
			</input>
			<output>
				<port id="4" precision="FP32" names="PPQ_Variable_273">
					<dim>1</dim>
					<dim>88</dim>
					<dim>52</dim>
					<dim>52</dim>
				</port>
			</output>
		</layer>
		<layer id="249" name="Constant_63328" type="Const" version="opset1">
			<data element_type="f32" shape="1, 1, 1, 1" offset="35640" size="4" />
			<output>
				<port id="0" precision="FP32">
					<dim>1</dim>
					<dim>1</dim>
					<dim>1</dim>
					<dim>1</dim>
				</port>
			</output>
		</layer>
		<layer id="250" name="Constant_63329" type="Const" version="opset1">
			<data element_type="f32" shape="1, 1, 1, 1" offset="35644" size="4" />
			<output>
				<port id="0" precision="FP32">
					<dim>1</dim>
					<dim>1</dim>
					<dim>1</dim>
					<dim>1</dim>
				</port>
			</output>
		</layer>
		<layer id="251" name="Constant_63330" type="Const" version="opset1">
			<data element_type="f32" shape="1, 1, 1, 1" offset="35640" size="4" />
			<output>
				<port id="0" precision="FP32">
					<dim>1</dim>
					<dim>1</dim>
					<dim>1</dim>
					<dim>1</dim>
				</port>
			</output>
		</layer>
		<layer id="252" name="Constant_63331" type="Const" version="opset1">
			<data element_type="f32" shape="1, 1, 1, 1" offset="35644" size="4" />
			<output>
				<port id="0" precision="FP32">
					<dim>1</dim>
					<dim>1</dim>
					<dim>1</dim>
					<dim>1</dim>
				</port>
			</output>
		</layer>
		<layer id="253" name="PPQ_Operation_52" type="FakeQuantize" version="opset1">
			<data levels="256" auto_broadcast="numpy" />
			<input>
				<port id="0" precision="FP32">
					<dim>1</dim>
					<dim>88</dim>
					<dim>52</dim>
					<dim>52</dim>
				</port>
				<port id="1" precision="FP32">
					<dim>1</dim>
					<dim>1</dim>
					<dim>1</dim>
					<dim>1</dim>
				</port>
				<port id="2" precision="FP32">
					<dim>1</dim>
					<dim>1</dim>
					<dim>1</dim>
					<dim>1</dim>
				</port>
				<port id="3" precision="FP32">
					<dim>1</dim>
					<dim>1</dim>
					<dim>1</dim>
					<dim>1</dim>
				</port>
				<port id="4" precision="FP32">
					<dim>1</dim>
					<dim>1</dim>
					<dim>1</dim>
					<dim>1</dim>
				</port>
			</input>
			<output>
				<port id="5" precision="FP32" names="/backbone/stage2/stage2.2/Slice_1_output_0">
					<dim>1</dim>
					<dim>88</dim>
					<dim>52</dim>
					<dim>52</dim>
				</port>
			</output>
		</layer>
		<layer id="254" name="onnx::Conv_1560" type="Const" version="opset1">
			<data element_type="i8" shape="88, 88, 1, 1" offset="35648" size="7744" />
			<output>
				<port id="0" precision="I8" names="onnx::Conv_1560">
					<dim>88</dim>
					<dim>88</dim>
					<dim>1</dim>
					<dim>1</dim>
				</port>
			</output>
		</layer>
		<layer id="255" name="Convert_1758" type="Convert" version="opset1">
			<data destination_type="f32" />
			<input>
				<port id="0" precision="I8">
					<dim>88</dim>
					<dim>88</dim>
					<dim>1</dim>
					<dim>1</dim>
				</port>
			</input>
			<output>
				<port id="1" precision="FP32">
					<dim>88</dim>
					<dim>88</dim>
					<dim>1</dim>
					<dim>1</dim>
				</port>
			</output>
		</layer>
		<layer id="256" name="Reshape_1752" type="Const" version="opset1">
			<data element_type="f32" shape="88, 1, 1, 1" offset="43392" size="352" />
			<output>
				<port id="0" precision="FP32">
					<dim>88</dim>
					<dim>1</dim>
					<dim>1</dim>
					<dim>1</dim>
				</port>
			</output>
		</layer>
		<layer id="257" name="PPQ_Operation_53" type="Multiply" version="opset1">
			<data auto_broadcast="numpy" />
			<input>
				<port id="0" precision="FP32">
					<dim>88</dim>
					<dim>88</dim>
					<dim>1</dim>
					<dim>1</dim>
				</port>
				<port id="1" precision="FP32">
					<dim>88</dim>
					<dim>1</dim>
					<dim>1</dim>
					<dim>1</dim>
				</port>
			</input>
			<output>
				<port id="2" precision="FP32" names="PPQ_Variable_279">
					<dim>88</dim>
					<dim>88</dim>
					<dim>1</dim>
					<dim>1</dim>
				</port>
			</output>
		</layer>
		<layer id="258" name="/backbone/stage2/stage2.2/branch2/branch2.0/Conv/WithoutBiases" type="Convolution" version="opset1">
			<data strides="1, 1" dilations="1, 1" pads_begin="0, 0" pads_end="0, 0" auto_pad="explicit" />
			<input>
				<port id="0" precision="FP32">
					<dim>1</dim>
					<dim>88</dim>
					<dim>52</dim>
					<dim>52</dim>
				</port>
				<port id="1" precision="FP32">
					<dim>88</dim>
					<dim>88</dim>
					<dim>1</dim>
					<dim>1</dim>
				</port>
			</input>
			<output>
				<port id="2" precision="FP32">
					<dim>1</dim>
					<dim>88</dim>
					<dim>52</dim>
					<dim>52</dim>
				</port>
			</output>
		</layer>
		<layer id="259" name="Reshape_5455" type="Const" version="opset1">
			<data element_type="f32" shape="1, 88, 1, 1" offset="43744" size="352" />
			<output>
				<port id="0" precision="FP32">
					<dim>1</dim>
					<dim>88</dim>
					<dim>1</dim>
					<dim>1</dim>
				</port>
			</output>
		</layer>
		<layer id="260" name="/backbone/stage2/stage2.2/branch2/branch2.0/Conv" type="Add" version="opset1">
			<data auto_broadcast="numpy" />
			<input>
				<port id="0" precision="FP32">
					<dim>1</dim>
					<dim>88</dim>
					<dim>52</dim>
					<dim>52</dim>
				</port>
				<port id="1" precision="FP32">
					<dim>1</dim>
					<dim>88</dim>
					<dim>1</dim>
					<dim>1</dim>
				</port>
			</input>
			<output>
				<port id="2" precision="FP32" names="PPQ_Variable_282">
					<dim>1</dim>
					<dim>88</dim>
					<dim>52</dim>
					<dim>52</dim>
				</port>
			</output>
		</layer>
		<layer id="261" name="Constant_63332" type="Const" version="opset1">
			<data element_type="f32" shape="1, 1, 1, 1" offset="44096" size="4" />
			<output>
				<port id="0" precision="FP32">
					<dim>1</dim>
					<dim>1</dim>
					<dim>1</dim>
					<dim>1</dim>
				</port>
			</output>
		</layer>
		<layer id="262" name="Constant_63333" type="Const" version="opset1">
			<data element_type="f32" shape="1, 1, 1, 1" offset="44100" size="4" />
			<output>
				<port id="0" precision="FP32">
					<dim>1</dim>
					<dim>1</dim>
					<dim>1</dim>
					<dim>1</dim>
				</port>
			</output>
		</layer>
		<layer id="263" name="Constant_63334" type="Const" version="opset1">
			<data element_type="f32" shape="1, 1, 1, 1" offset="44096" size="4" />
			<output>
				<port id="0" precision="FP32">
					<dim>1</dim>
					<dim>1</dim>
					<dim>1</dim>
					<dim>1</dim>
				</port>
			</output>
		</layer>
		<layer id="264" name="Constant_63335" type="Const" version="opset1">
			<data element_type="f32" shape="1, 1, 1, 1" offset="44100" size="4" />
			<output>
				<port id="0" precision="FP32">
					<dim>1</dim>
					<dim>1</dim>
					<dim>1</dim>
					<dim>1</dim>
				</port>
			</output>
		</layer>
		<layer id="265" name="PPQ_Operation_55" type="FakeQuantize" version="opset1">
			<data levels="256" auto_broadcast="numpy" />
			<input>
				<port id="0" precision="FP32">
					<dim>1</dim>
					<dim>88</dim>
					<dim>52</dim>
					<dim>52</dim>
				</port>
				<port id="1" precision="FP32">
					<dim>1</dim>
					<dim>1</dim>
					<dim>1</dim>
					<dim>1</dim>
				</port>
				<port id="2" precision="FP32">
					<dim>1</dim>
					<dim>1</dim>
					<dim>1</dim>
					<dim>1</dim>
				</port>
				<port id="3" precision="FP32">
					<dim>1</dim>
					<dim>1</dim>
					<dim>1</dim>
					<dim>1</dim>
				</port>
				<port id="4" precision="FP32">
					<dim>1</dim>
					<dim>1</dim>
					<dim>1</dim>
					<dim>1</dim>
				</port>
			</input>
			<output>
				<port id="5" precision="FP32" names="/backbone/stage2/stage2.2/branch2/branch2.0/Conv_output_0">
					<dim>1</dim>
					<dim>88</dim>
					<dim>52</dim>
					<dim>52</dim>
				</port>
			</output>
		</layer>
		<layer id="266" name="Constant_5535" type="Const" version="opset1">
			<data element_type="f32" shape="1" offset="932" size="4" />
			<output>
				<port id="0" precision="FP32">
					<dim>1</dim>
				</port>
			</output>
		</layer>
		<layer id="267" name="/backbone/stage2/stage2.2/branch2/branch2.2/LeakyRelu" type="PReLU" version="opset1">
			<input>
				<port id="0" precision="FP32">
					<dim>1</dim>
					<dim>88</dim>
					<dim>52</dim>
					<dim>52</dim>
				</port>
				<port id="1" precision="FP32">
					<dim>1</dim>
				</port>
			</input>
			<output>
				<port id="2" precision="FP32" names="PPQ_Variable_288">
					<dim>1</dim>
					<dim>88</dim>
					<dim>52</dim>
					<dim>52</dim>
				</port>
			</output>
		</layer>
		<layer id="268" name="Constant_63336" type="Const" version="opset1">
			<data element_type="f32" shape="1, 1, 1, 1" offset="44104" size="4" />
			<output>
				<port id="0" precision="FP32">
					<dim>1</dim>
					<dim>1</dim>
					<dim>1</dim>
					<dim>1</dim>
				</port>
			</output>
		</layer>
		<layer id="269" name="Constant_63337" type="Const" version="opset1">
			<data element_type="f32" shape="1, 1, 1, 1" offset="44108" size="4" />
			<output>
				<port id="0" precision="FP32">
					<dim>1</dim>
					<dim>1</dim>
					<dim>1</dim>
					<dim>1</dim>
				</port>
			</output>
		</layer>
		<layer id="270" name="Constant_63338" type="Const" version="opset1">
			<data element_type="f32" shape="1, 1, 1, 1" offset="44104" size="4" />
			<output>
				<port id="0" precision="FP32">
					<dim>1</dim>
					<dim>1</dim>
					<dim>1</dim>
					<dim>1</dim>
				</port>
			</output>
		</layer>
		<layer id="271" name="Constant_63339" type="Const" version="opset1">
			<data element_type="f32" shape="1, 1, 1, 1" offset="44108" size="4" />
			<output>
				<port id="0" precision="FP32">
					<dim>1</dim>
					<dim>1</dim>
					<dim>1</dim>
					<dim>1</dim>
				</port>
			</output>
		</layer>
		<layer id="272" name="PPQ_Operation_57" type="FakeQuantize" version="opset1">
			<data levels="256" auto_broadcast="numpy" />
			<input>
				<port id="0" precision="FP32">
					<dim>1</dim>
					<dim>88</dim>
					<dim>52</dim>
					<dim>52</dim>
				</port>
				<port id="1" precision="FP32">
					<dim>1</dim>
					<dim>1</dim>
					<dim>1</dim>
					<dim>1</dim>
				</port>
				<port id="2" precision="FP32">
					<dim>1</dim>
					<dim>1</dim>
					<dim>1</dim>
					<dim>1</dim>
				</port>
				<port id="3" precision="FP32">
					<dim>1</dim>
					<dim>1</dim>
					<dim>1</dim>
					<dim>1</dim>
				</port>
				<port id="4" precision="FP32">
					<dim>1</dim>
					<dim>1</dim>
					<dim>1</dim>
					<dim>1</dim>
				</port>
			</input>
			<output>
				<port id="5" precision="FP32" names="/backbone/stage2/stage2.2/branch2/branch2.2/LeakyRelu_output_0">
					<dim>1</dim>
					<dim>88</dim>
					<dim>52</dim>
					<dim>52</dim>
				</port>
			</output>
		</layer>
		<layer id="273" name="onnx::Conv_1563" type="Const" version="opset1">
			<data element_type="i8" shape="88, 1, 3, 3" offset="44112" size="792" />
			<output>
				<port id="0" precision="I8" names="onnx::Conv_1563">
					<dim>88</dim>
					<dim>1</dim>
					<dim>3</dim>
					<dim>3</dim>
				</port>
			</output>
		</layer>
		<layer id="274" name="Convert_1776" type="Convert" version="opset1">
			<data destination_type="f32" />
			<input>
				<port id="0" precision="I8">
					<dim>88</dim>
					<dim>1</dim>
					<dim>3</dim>
					<dim>3</dim>
				</port>
			</input>
			<output>
				<port id="1" precision="FP32">
					<dim>88</dim>
					<dim>1</dim>
					<dim>3</dim>
					<dim>3</dim>
				</port>
			</output>
		</layer>
		<layer id="275" name="Reshape_1770" type="Const" version="opset1">
			<data element_type="f32" shape="88, 1, 1, 1" offset="44904" size="352" />
			<output>
				<port id="0" precision="FP32">
					<dim>88</dim>
					<dim>1</dim>
					<dim>1</dim>
					<dim>1</dim>
				</port>
			</output>
		</layer>
		<layer id="276" name="PPQ_Operation_58" type="Multiply" version="opset1">
			<data auto_broadcast="numpy" />
			<input>
				<port id="0" precision="FP32">
					<dim>88</dim>
					<dim>1</dim>
					<dim>3</dim>
					<dim>3</dim>
				</port>
				<port id="1" precision="FP32">
					<dim>88</dim>
					<dim>1</dim>
					<dim>1</dim>
					<dim>1</dim>
				</port>
			</input>
			<output>
				<port id="2" precision="FP32" names="PPQ_Variable_294">
					<dim>88</dim>
					<dim>1</dim>
					<dim>3</dim>
					<dim>3</dim>
				</port>
			</output>
		</layer>
		<layer id="277" name="Constant_5591" type="Const" version="opset1">
			<data element_type="i64" shape="1" offset="8192" size="8" />
			<output>
				<port id="0" precision="I64">
					<dim>1</dim>
				</port>
			</output>
		</layer>
		<layer id="278" name="ShapeOf_5592" type="ShapeOf" version="opset3">
			<data output_type="i64" />
			<input>
				<port id="0" precision="FP32">
					<dim>88</dim>
					<dim>1</dim>
					<dim>3</dim>
					<dim>3</dim>
				</port>
			</input>
			<output>
				<port id="1" precision="I64">
					<dim>4</dim>
				</port>
			</output>
		</layer>
		<layer id="279" name="Constant_5589" type="Const" version="opset1">
			<data element_type="i64" shape="" offset="1256" size="8" />
			<output>
				<port id="0" precision="I64" />
			</output>
		</layer>
		<layer id="280" name="Constant_5590" type="Const" version="opset1">
			<data element_type="i64" shape="2" offset="1264" size="16" />
			<output>
				<port id="0" precision="I64">
					<dim>2</dim>
				</port>
			</output>
		</layer>
		<layer id="281" name="VariadicSplit_5593" type="VariadicSplit" version="opset1">
			<input>
				<port id="0" precision="I64">
					<dim>4</dim>
				</port>
				<port id="1" precision="I64" />
				<port id="2" precision="I64">
					<dim>2</dim>
				</port>
			</input>
			<output>
				<port id="3" precision="I64">
					<dim>1</dim>
				</port>
				<port id="4" precision="I64">
					<dim>3</dim>
				</port>
			</output>
		</layer>
		<layer id="282" name="Divide_5594" type="Divide" version="opset1">
			<data auto_broadcast="numpy" m_pythondiv="true" />
			<input>
				<port id="0" precision="I64">
					<dim>1</dim>
				</port>
				<port id="1" precision="I64">
					<dim>1</dim>
				</port>
			</input>
			<output>
				<port id="2" precision="I64">
					<dim>1</dim>
				</port>
			</output>
		</layer>
		<layer id="283" name="Concat_5595" type="Concat" version="opset1">
			<data axis="0" />
			<input>
				<port id="0" precision="I64">
					<dim>1</dim>
				</port>
				<port id="1" precision="I64">
					<dim>1</dim>
				</port>
				<port id="2" precision="I64">
					<dim>3</dim>
				</port>
			</input>
			<output>
				<port id="3" precision="I64">
					<dim>5</dim>
				</port>
			</output>
		</layer>
		<layer id="284" name="Reshape_5596" type="Reshape" version="opset1">
			<data special_zero="false" />
			<input>
				<port id="0" precision="FP32">
					<dim>88</dim>
					<dim>1</dim>
					<dim>3</dim>
					<dim>3</dim>
				</port>
				<port id="1" precision="I64">
					<dim>5</dim>
				</port>
			</input>
			<output>
				<port id="2" precision="FP32">
					<dim>88</dim>
					<dim>1</dim>
					<dim>1</dim>
					<dim>3</dim>
					<dim>3</dim>
				</port>
			</output>
		</layer>
		<layer id="285" name="/backbone/stage2/stage2.2/branch2/branch2.3/Conv/WithoutBiases" type="GroupConvolution" version="opset1">
			<data strides="1, 1" pads_begin="1, 1" pads_end="1, 1" dilations="1, 1" auto_pad="explicit" />
			<input>
				<port id="0" precision="FP32">
					<dim>1</dim>
					<dim>88</dim>
					<dim>52</dim>
					<dim>52</dim>
				</port>
				<port id="1" precision="FP32">
					<dim>88</dim>
					<dim>1</dim>
					<dim>1</dim>
					<dim>3</dim>
					<dim>3</dim>
				</port>
			</input>
			<output>
				<port id="2" precision="FP32">
					<dim>1</dim>
					<dim>88</dim>
					<dim>52</dim>
					<dim>52</dim>
				</port>
			</output>
		</layer>
		<layer id="286" name="Reshape_5682" type="Const" version="opset1">
			<data element_type="f32" shape="1, 88, 1, 1" offset="45256" size="352" />
			<output>
				<port id="0" precision="FP32">
					<dim>1</dim>
					<dim>88</dim>
					<dim>1</dim>
					<dim>1</dim>
				</port>
			</output>
		</layer>
		<layer id="287" name="/backbone/stage2/stage2.2/branch2/branch2.3/Conv" type="Add" version="opset1">
			<data auto_broadcast="numpy" />
			<input>
				<port id="0" precision="FP32">
					<dim>1</dim>
					<dim>88</dim>
					<dim>52</dim>
					<dim>52</dim>
				</port>
				<port id="1" precision="FP32">
					<dim>1</dim>
					<dim>88</dim>
					<dim>1</dim>
					<dim>1</dim>
				</port>
			</input>
			<output>
				<port id="2" precision="FP32" names="PPQ_Variable_297">
					<dim>1</dim>
					<dim>88</dim>
					<dim>52</dim>
					<dim>52</dim>
				</port>
			</output>
		</layer>
		<layer id="288" name="Constant_63340" type="Const" version="opset1">
			<data element_type="f32" shape="1, 1, 1, 1" offset="45608" size="4" />
			<output>
				<port id="0" precision="FP32">
					<dim>1</dim>
					<dim>1</dim>
					<dim>1</dim>
					<dim>1</dim>
				</port>
			</output>
		</layer>
		<layer id="289" name="Constant_63341" type="Const" version="opset1">
			<data element_type="f32" shape="1, 1, 1, 1" offset="45612" size="4" />
			<output>
				<port id="0" precision="FP32">
					<dim>1</dim>
					<dim>1</dim>
					<dim>1</dim>
					<dim>1</dim>
				</port>
			</output>
		</layer>
		<layer id="290" name="Constant_63342" type="Const" version="opset1">
			<data element_type="f32" shape="1, 1, 1, 1" offset="45608" size="4" />
			<output>
				<port id="0" precision="FP32">
					<dim>1</dim>
					<dim>1</dim>
					<dim>1</dim>
					<dim>1</dim>
				</port>
			</output>
		</layer>
		<layer id="291" name="Constant_63343" type="Const" version="opset1">
			<data element_type="f32" shape="1, 1, 1, 1" offset="45612" size="4" />
			<output>
				<port id="0" precision="FP32">
					<dim>1</dim>
					<dim>1</dim>
					<dim>1</dim>
					<dim>1</dim>
				</port>
			</output>
		</layer>
		<layer id="292" name="PPQ_Operation_60" type="FakeQuantize" version="opset1">
			<data levels="256" auto_broadcast="numpy" />
			<input>
				<port id="0" precision="FP32">
					<dim>1</dim>
					<dim>88</dim>
					<dim>52</dim>
					<dim>52</dim>
				</port>
				<port id="1" precision="FP32">
					<dim>1</dim>
					<dim>1</dim>
					<dim>1</dim>
					<dim>1</dim>
				</port>
				<port id="2" precision="FP32">
					<dim>1</dim>
					<dim>1</dim>
					<dim>1</dim>
					<dim>1</dim>
				</port>
				<port id="3" precision="FP32">
					<dim>1</dim>
					<dim>1</dim>
					<dim>1</dim>
					<dim>1</dim>
				</port>
				<port id="4" precision="FP32">
					<dim>1</dim>
					<dim>1</dim>
					<dim>1</dim>
					<dim>1</dim>
				</port>
			</input>
			<output>
				<port id="5" precision="FP32" names="/backbone/stage2/stage2.2/branch2/branch2.3/Conv_output_0">
					<dim>1</dim>
					<dim>88</dim>
					<dim>52</dim>
					<dim>52</dim>
				</port>
			</output>
		</layer>
		<layer id="293" name="onnx::Conv_1566" type="Const" version="opset1">
			<data element_type="i8" shape="88, 88, 1, 1" offset="45616" size="7744" />
			<output>
				<port id="0" precision="I8" names="onnx::Conv_1566">
					<dim>88</dim>
					<dim>88</dim>
					<dim>1</dim>
					<dim>1</dim>
				</port>
			</output>
		</layer>
		<layer id="294" name="Convert_1794" type="Convert" version="opset1">
			<data destination_type="f32" />
			<input>
				<port id="0" precision="I8">
					<dim>88</dim>
					<dim>88</dim>
					<dim>1</dim>
					<dim>1</dim>
				</port>
			</input>
			<output>
				<port id="1" precision="FP32">
					<dim>88</dim>
					<dim>88</dim>
					<dim>1</dim>
					<dim>1</dim>
				</port>
			</output>
		</layer>
		<layer id="295" name="Reshape_1788" type="Const" version="opset1">
			<data element_type="f32" shape="88, 1, 1, 1" offset="53360" size="352" />
			<output>
				<port id="0" precision="FP32">
					<dim>88</dim>
					<dim>1</dim>
					<dim>1</dim>
					<dim>1</dim>
				</port>
			</output>
		</layer>
		<layer id="296" name="PPQ_Operation_61" type="Multiply" version="opset1">
			<data auto_broadcast="numpy" />
			<input>
				<port id="0" precision="FP32">
					<dim>88</dim>
					<dim>88</dim>
					<dim>1</dim>
					<dim>1</dim>
				</port>
				<port id="1" precision="FP32">
					<dim>88</dim>
					<dim>1</dim>
					<dim>1</dim>
					<dim>1</dim>
				</port>
			</input>
			<output>
				<port id="2" precision="FP32" names="PPQ_Variable_303">
					<dim>88</dim>
					<dim>88</dim>
					<dim>1</dim>
					<dim>1</dim>
				</port>
			</output>
		</layer>
		<layer id="297" name="/backbone/stage2/stage2.2/branch2/branch2.5/Conv/WithoutBiases" type="Convolution" version="opset1">
			<data strides="1, 1" dilations="1, 1" pads_begin="0, 0" pads_end="0, 0" auto_pad="explicit" />
			<input>
				<port id="0" precision="FP32">
					<dim>1</dim>
					<dim>88</dim>
					<dim>52</dim>
					<dim>52</dim>
				</port>
				<port id="1" precision="FP32">
					<dim>88</dim>
					<dim>88</dim>
					<dim>1</dim>
					<dim>1</dim>
				</port>
			</input>
			<output>
				<port id="2" precision="FP32">
					<dim>1</dim>
					<dim>88</dim>
					<dim>52</dim>
					<dim>52</dim>
				</port>
			</output>
		</layer>
		<layer id="298" name="Reshape_5782" type="Const" version="opset1">
			<data element_type="f32" shape="1, 88, 1, 1" offset="53712" size="352" />
			<output>
				<port id="0" precision="FP32">
					<dim>1</dim>
					<dim>88</dim>
					<dim>1</dim>
					<dim>1</dim>
				</port>
			</output>
		</layer>
		<layer id="299" name="/backbone/stage2/stage2.2/branch2/branch2.5/Conv" type="Add" version="opset1">
			<data auto_broadcast="numpy" />
			<input>
				<port id="0" precision="FP32">
					<dim>1</dim>
					<dim>88</dim>
					<dim>52</dim>
					<dim>52</dim>
				</port>
				<port id="1" precision="FP32">
					<dim>1</dim>
					<dim>88</dim>
					<dim>1</dim>
					<dim>1</dim>
				</port>
			</input>
			<output>
				<port id="2" precision="FP32" names="PPQ_Variable_306">
					<dim>1</dim>
					<dim>88</dim>
					<dim>52</dim>
					<dim>52</dim>
				</port>
			</output>
		</layer>
		<layer id="300" name="Constant_63344" type="Const" version="opset1">
			<data element_type="f32" shape="1, 1, 1, 1" offset="54064" size="4" />
			<output>
				<port id="0" precision="FP32">
					<dim>1</dim>
					<dim>1</dim>
					<dim>1</dim>
					<dim>1</dim>
				</port>
			</output>
		</layer>
		<layer id="301" name="Constant_63345" type="Const" version="opset1">
			<data element_type="f32" shape="1, 1, 1, 1" offset="54068" size="4" />
			<output>
				<port id="0" precision="FP32">
					<dim>1</dim>
					<dim>1</dim>
					<dim>1</dim>
					<dim>1</dim>
				</port>
			</output>
		</layer>
		<layer id="302" name="Constant_63346" type="Const" version="opset1">
			<data element_type="f32" shape="1, 1, 1, 1" offset="54064" size="4" />
			<output>
				<port id="0" precision="FP32">
					<dim>1</dim>
					<dim>1</dim>
					<dim>1</dim>
					<dim>1</dim>
				</port>
			</output>
		</layer>
		<layer id="303" name="Constant_63347" type="Const" version="opset1">
			<data element_type="f32" shape="1, 1, 1, 1" offset="54068" size="4" />
			<output>
				<port id="0" precision="FP32">
					<dim>1</dim>
					<dim>1</dim>
					<dim>1</dim>
					<dim>1</dim>
				</port>
			</output>
		</layer>
		<layer id="304" name="PPQ_Operation_63" type="FakeQuantize" version="opset1">
			<data levels="256" auto_broadcast="numpy" />
			<input>
				<port id="0" precision="FP32">
					<dim>1</dim>
					<dim>88</dim>
					<dim>52</dim>
					<dim>52</dim>
				</port>
				<port id="1" precision="FP32">
					<dim>1</dim>
					<dim>1</dim>
					<dim>1</dim>
					<dim>1</dim>
				</port>
				<port id="2" precision="FP32">
					<dim>1</dim>
					<dim>1</dim>
					<dim>1</dim>
					<dim>1</dim>
				</port>
				<port id="3" precision="FP32">
					<dim>1</dim>
					<dim>1</dim>
					<dim>1</dim>
					<dim>1</dim>
				</port>
				<port id="4" precision="FP32">
					<dim>1</dim>
					<dim>1</dim>
					<dim>1</dim>
					<dim>1</dim>
				</port>
			</input>
			<output>
				<port id="5" precision="FP32" names="/backbone/stage2/stage2.2/branch2/branch2.5/Conv_output_0">
					<dim>1</dim>
					<dim>88</dim>
					<dim>52</dim>
					<dim>52</dim>
				</port>
			</output>
		</layer>
		<layer id="305" name="Constant_5862" type="Const" version="opset1">
			<data element_type="f32" shape="1" offset="932" size="4" />
			<output>
				<port id="0" precision="FP32">
					<dim>1</dim>
				</port>
			</output>
		</layer>
		<layer id="306" name="/backbone/stage2/stage2.2/branch2/branch2.7/LeakyRelu" type="PReLU" version="opset1">
			<input>
				<port id="0" precision="FP32">
					<dim>1</dim>
					<dim>88</dim>
					<dim>52</dim>
					<dim>52</dim>
				</port>
				<port id="1" precision="FP32">
					<dim>1</dim>
				</port>
			</input>
			<output>
				<port id="2" precision="FP32" names="PPQ_Variable_312">
					<dim>1</dim>
					<dim>88</dim>
					<dim>52</dim>
					<dim>52</dim>
				</port>
			</output>
		</layer>
		<layer id="307" name="Constant_63348" type="Const" version="opset1">
			<data element_type="f32" shape="1, 1, 1, 1" offset="35632" size="4" />
			<output>
				<port id="0" precision="FP32">
					<dim>1</dim>
					<dim>1</dim>
					<dim>1</dim>
					<dim>1</dim>
				</port>
			</output>
		</layer>
		<layer id="308" name="Constant_63349" type="Const" version="opset1">
			<data element_type="f32" shape="1, 1, 1, 1" offset="35636" size="4" />
			<output>
				<port id="0" precision="FP32">
					<dim>1</dim>
					<dim>1</dim>
					<dim>1</dim>
					<dim>1</dim>
				</port>
			</output>
		</layer>
		<layer id="309" name="Constant_63350" type="Const" version="opset1">
			<data element_type="f32" shape="1, 1, 1, 1" offset="35632" size="4" />
			<output>
				<port id="0" precision="FP32">
					<dim>1</dim>
					<dim>1</dim>
					<dim>1</dim>
					<dim>1</dim>
				</port>
			</output>
		</layer>
		<layer id="310" name="Constant_63351" type="Const" version="opset1">
			<data element_type="f32" shape="1, 1, 1, 1" offset="35636" size="4" />
			<output>
				<port id="0" precision="FP32">
					<dim>1</dim>
					<dim>1</dim>
					<dim>1</dim>
					<dim>1</dim>
				</port>
			</output>
		</layer>
		<layer id="311" name="PPQ_Operation_65" type="FakeQuantize" version="opset1">
			<data levels="256" auto_broadcast="numpy" />
			<input>
				<port id="0" precision="FP32">
					<dim>1</dim>
					<dim>88</dim>
					<dim>52</dim>
					<dim>52</dim>
				</port>
				<port id="1" precision="FP32">
					<dim>1</dim>
					<dim>1</dim>
					<dim>1</dim>
					<dim>1</dim>
				</port>
				<port id="2" precision="FP32">
					<dim>1</dim>
					<dim>1</dim>
					<dim>1</dim>
					<dim>1</dim>
				</port>
				<port id="3" precision="FP32">
					<dim>1</dim>
					<dim>1</dim>
					<dim>1</dim>
					<dim>1</dim>
				</port>
				<port id="4" precision="FP32">
					<dim>1</dim>
					<dim>1</dim>
					<dim>1</dim>
					<dim>1</dim>
				</port>
			</input>
			<output>
				<port id="5" precision="FP32" names="/backbone/stage2/stage2.2/branch2/branch2.7/LeakyRelu_output_0">
					<dim>1</dim>
					<dim>88</dim>
					<dim>52</dim>
					<dim>52</dim>
				</port>
			</output>
		</layer>
		<layer id="312" name="/backbone/stage2/stage2.2/Concat" type="Concat" version="opset1">
			<data axis="1" />
			<input>
				<port id="0" precision="FP32">
					<dim>1</dim>
					<dim>88</dim>
					<dim>52</dim>
					<dim>52</dim>
				</port>
				<port id="1" precision="FP32">
					<dim>1</dim>
					<dim>88</dim>
					<dim>52</dim>
					<dim>52</dim>
				</port>
			</input>
			<output>
				<port id="2" precision="FP32" names="PPQ_Variable_318">
					<dim>1</dim>
					<dim>176</dim>
					<dim>52</dim>
					<dim>52</dim>
				</port>
			</output>
		</layer>
		<layer id="313" name="Constant_63352" type="Const" version="opset1">
			<data element_type="f32" shape="1, 1, 1, 1" offset="35632" size="4" />
			<output>
				<port id="0" precision="FP32">
					<dim>1</dim>
					<dim>1</dim>
					<dim>1</dim>
					<dim>1</dim>
				</port>
			</output>
		</layer>
		<layer id="314" name="Constant_63353" type="Const" version="opset1">
			<data element_type="f32" shape="1, 1, 1, 1" offset="35636" size="4" />
			<output>
				<port id="0" precision="FP32">
					<dim>1</dim>
					<dim>1</dim>
					<dim>1</dim>
					<dim>1</dim>
				</port>
			</output>
		</layer>
		<layer id="315" name="Constant_63354" type="Const" version="opset1">
			<data element_type="f32" shape="1, 1, 1, 1" offset="35632" size="4" />
			<output>
				<port id="0" precision="FP32">
					<dim>1</dim>
					<dim>1</dim>
					<dim>1</dim>
					<dim>1</dim>
				</port>
			</output>
		</layer>
		<layer id="316" name="Constant_63355" type="Const" version="opset1">
			<data element_type="f32" shape="1, 1, 1, 1" offset="35636" size="4" />
			<output>
				<port id="0" precision="FP32">
					<dim>1</dim>
					<dim>1</dim>
					<dim>1</dim>
					<dim>1</dim>
				</port>
			</output>
		</layer>
		<layer id="317" name="PPQ_Operation_67" type="FakeQuantize" version="opset1">
			<data levels="256" auto_broadcast="numpy" />
			<input>
				<port id="0" precision="FP32">
					<dim>1</dim>
					<dim>176</dim>
					<dim>52</dim>
					<dim>52</dim>
				</port>
				<port id="1" precision="FP32">
					<dim>1</dim>
					<dim>1</dim>
					<dim>1</dim>
					<dim>1</dim>
				</port>
				<port id="2" precision="FP32">
					<dim>1</dim>
					<dim>1</dim>
					<dim>1</dim>
					<dim>1</dim>
				</port>
				<port id="3" precision="FP32">
					<dim>1</dim>
					<dim>1</dim>
					<dim>1</dim>
					<dim>1</dim>
				</port>
				<port id="4" precision="FP32">
					<dim>1</dim>
					<dim>1</dim>
					<dim>1</dim>
					<dim>1</dim>
				</port>
			</input>
			<output>
				<port id="5" precision="FP32" names="/backbone/stage2/stage2.2/Concat_output_0">
					<dim>1</dim>
					<dim>176</dim>
					<dim>52</dim>
					<dim>52</dim>
				</port>
			</output>
		</layer>
		<layer id="318" name="PPQ_Variable_2" type="Const" version="opset1">
			<data element_type="i64" shape="5" offset="17016" size="40" />
			<output>
				<port id="0" precision="I64" names="PPQ_Variable_2">
					<dim>5</dim>
				</port>
			</output>
		</layer>
		<layer id="319" name="/backbone/stage2/stage2.2/Reshape" type="Reshape" version="opset1">
			<data special_zero="true" />
			<input>
				<port id="0" precision="FP32">
					<dim>1</dim>
					<dim>176</dim>
					<dim>52</dim>
					<dim>52</dim>
				</port>
				<port id="1" precision="I64">
					<dim>5</dim>
				</port>
			</input>
			<output>
				<port id="2" precision="FP32" names="/backbone/stage2/stage2.2/Reshape_output_0">
					<dim>1</dim>
					<dim>2</dim>
					<dim>88</dim>
					<dim>52</dim>
					<dim>52</dim>
				</port>
			</output>
		</layer>
		<layer id="320" name="Constant_5975" type="Const" version="opset1">
			<data element_type="i64" shape="5" offset="17056" size="40" />
			<output>
				<port id="0" precision="I64">
					<dim>5</dim>
				</port>
			</output>
		</layer>
		<layer id="321" name="/backbone/stage2/stage2.2/Transpose" type="Transpose" version="opset1">
			<input>
				<port id="0" precision="FP32">
					<dim>1</dim>
					<dim>2</dim>
					<dim>88</dim>
					<dim>52</dim>
					<dim>52</dim>
				</port>
				<port id="1" precision="I64">
					<dim>5</dim>
				</port>
			</input>
			<output>
				<port id="2" precision="FP32" names="/backbone/stage2/stage2.2/Transpose_output_0">
					<dim>1</dim>
					<dim>88</dim>
					<dim>2</dim>
					<dim>52</dim>
					<dim>52</dim>
				</port>
			</output>
		</layer>
		<layer id="322" name="PPQ_Variable_16" type="Const" version="opset1">
			<data element_type="i64" shape="4" offset="17096" size="32" />
			<output>
				<port id="0" precision="I64" names="PPQ_Variable_16">
					<dim>4</dim>
				</port>
			</output>
		</layer>
		<layer id="323" name="/backbone/stage2/stage2.2/Reshape_1" type="Reshape" version="opset1">
			<data special_zero="true" />
			<input>
				<port id="0" precision="FP32">
					<dim>1</dim>
					<dim>88</dim>
					<dim>2</dim>
					<dim>52</dim>
					<dim>52</dim>
				</port>
				<port id="1" precision="I64">
					<dim>4</dim>
				</port>
			</input>
			<output>
				<port id="2" precision="FP32" names="/backbone/stage2/stage2.2/Reshape_1_output_0">
					<dim>1</dim>
					<dim>176</dim>
					<dim>52</dim>
					<dim>52</dim>
				</port>
			</output>
		</layer>
		<layer id="324" name="Constant_59533" type="Const" version="opset1">
			<data element_type="i64" shape="2" offset="17128" size="16" />
			<output>
				<port id="0" precision="I64">
					<dim>2</dim>
				</port>
			</output>
		</layer>
		<layer id="325" name="Constant_59536" type="Const" version="opset1">
			<data element_type="i64" shape="2" offset="17144" size="16" />
			<output>
				<port id="0" precision="I64">
					<dim>2</dim>
				</port>
			</output>
		</layer>
		<layer id="326" name="Constant_59539" type="Const" version="opset1">
			<data element_type="i64" shape="2" offset="17160" size="16" />
			<output>
				<port id="0" precision="I64">
					<dim>2</dim>
				</port>
			</output>
		</layer>
		<layer id="327" name="/backbone/stage2/stage2.3/Slice" type="StridedSlice" version="opset1">
			<data begin_mask="1, 0" end_mask="1, 0" new_axis_mask="" shrink_axis_mask="" ellipsis_mask="" />
			<input>
				<port id="0" precision="FP32">
					<dim>1</dim>
					<dim>176</dim>
					<dim>52</dim>
					<dim>52</dim>
				</port>
				<port id="1" precision="I64">
					<dim>2</dim>
				</port>
				<port id="2" precision="I64">
					<dim>2</dim>
				</port>
				<port id="3" precision="I64">
					<dim>2</dim>
				</port>
			</input>
			<output>
				<port id="4" precision="FP32" names="PPQ_Variable_324">
					<dim>1</dim>
					<dim>88</dim>
					<dim>52</dim>
					<dim>52</dim>
				</port>
			</output>
		</layer>
		<layer id="328" name="Constant_63356" type="Const" version="opset1">
			<data element_type="f32" shape="1, 1, 1, 1" offset="54072" size="4" />
			<output>
				<port id="0" precision="FP32">
					<dim>1</dim>
					<dim>1</dim>
					<dim>1</dim>
					<dim>1</dim>
				</port>
			</output>
		</layer>
		<layer id="329" name="Constant_63357" type="Const" version="opset1">
			<data element_type="f32" shape="1, 1, 1, 1" offset="54076" size="4" />
			<output>
				<port id="0" precision="FP32">
					<dim>1</dim>
					<dim>1</dim>
					<dim>1</dim>
					<dim>1</dim>
				</port>
			</output>
		</layer>
		<layer id="330" name="Constant_63358" type="Const" version="opset1">
			<data element_type="f32" shape="1, 1, 1, 1" offset="54072" size="4" />
			<output>
				<port id="0" precision="FP32">
					<dim>1</dim>
					<dim>1</dim>
					<dim>1</dim>
					<dim>1</dim>
				</port>
			</output>
		</layer>
		<layer id="331" name="Constant_63359" type="Const" version="opset1">
			<data element_type="f32" shape="1, 1, 1, 1" offset="54076" size="4" />
			<output>
				<port id="0" precision="FP32">
					<dim>1</dim>
					<dim>1</dim>
					<dim>1</dim>
					<dim>1</dim>
				</port>
			</output>
		</layer>
		<layer id="332" name="PPQ_Operation_69" type="FakeQuantize" version="opset1">
			<data levels="256" auto_broadcast="numpy" />
			<input>
				<port id="0" precision="FP32">
					<dim>1</dim>
					<dim>88</dim>
					<dim>52</dim>
					<dim>52</dim>
				</port>
				<port id="1" precision="FP32">
					<dim>1</dim>
					<dim>1</dim>
					<dim>1</dim>
					<dim>1</dim>
				</port>
				<port id="2" precision="FP32">
					<dim>1</dim>
					<dim>1</dim>
					<dim>1</dim>
					<dim>1</dim>
				</port>
				<port id="3" precision="FP32">
					<dim>1</dim>
					<dim>1</dim>
					<dim>1</dim>
					<dim>1</dim>
				</port>
				<port id="4" precision="FP32">
					<dim>1</dim>
					<dim>1</dim>
					<dim>1</dim>
					<dim>1</dim>
				</port>
			</input>
			<output>
				<port id="5" precision="FP32" names="/backbone/stage2/stage2.3/Slice_output_0">
					<dim>1</dim>
					<dim>88</dim>
					<dim>52</dim>
					<dim>52</dim>
				</port>
			</output>
		</layer>
		<layer id="333" name="Constant_59545" type="Const" version="opset1">
			<data element_type="i64" shape="2" offset="17144" size="16" />
			<output>
				<port id="0" precision="I64">
					<dim>2</dim>
				</port>
			</output>
		</layer>
		<layer id="334" name="Constant_59548" type="Const" version="opset1">
			<data element_type="i64" shape="2" offset="17184" size="16" />
			<output>
				<port id="0" precision="I64">
					<dim>2</dim>
				</port>
			</output>
		</layer>
		<layer id="335" name="Constant_59551" type="Const" version="opset1">
			<data element_type="i64" shape="2" offset="17160" size="16" />
			<output>
				<port id="0" precision="I64">
					<dim>2</dim>
				</port>
			</output>
		</layer>
		<layer id="336" name="/backbone/stage2/stage2.3/Slice_1" type="StridedSlice" version="opset1">
			<data begin_mask="1, 0" end_mask="1, 0" new_axis_mask="" shrink_axis_mask="" ellipsis_mask="" />
			<input>
				<port id="0" precision="FP32">
					<dim>1</dim>
					<dim>176</dim>
					<dim>52</dim>
					<dim>52</dim>
				</port>
				<port id="1" precision="I64">
					<dim>2</dim>
				</port>
				<port id="2" precision="I64">
					<dim>2</dim>
				</port>
				<port id="3" precision="I64">
					<dim>2</dim>
				</port>
			</input>
			<output>
				<port id="4" precision="FP32" names="PPQ_Variable_330">
					<dim>1</dim>
					<dim>88</dim>
					<dim>52</dim>
					<dim>52</dim>
				</port>
			</output>
		</layer>
		<layer id="337" name="Constant_63360" type="Const" version="opset1">
			<data element_type="f32" shape="1, 1, 1, 1" offset="54080" size="4" />
			<output>
				<port id="0" precision="FP32">
					<dim>1</dim>
					<dim>1</dim>
					<dim>1</dim>
					<dim>1</dim>
				</port>
			</output>
		</layer>
		<layer id="338" name="Constant_63361" type="Const" version="opset1">
			<data element_type="f32" shape="1, 1, 1, 1" offset="54084" size="4" />
			<output>
				<port id="0" precision="FP32">
					<dim>1</dim>
					<dim>1</dim>
					<dim>1</dim>
					<dim>1</dim>
				</port>
			</output>
		</layer>
		<layer id="339" name="Constant_63362" type="Const" version="opset1">
			<data element_type="f32" shape="1, 1, 1, 1" offset="54080" size="4" />
			<output>
				<port id="0" precision="FP32">
					<dim>1</dim>
					<dim>1</dim>
					<dim>1</dim>
					<dim>1</dim>
				</port>
			</output>
		</layer>
		<layer id="340" name="Constant_63363" type="Const" version="opset1">
			<data element_type="f32" shape="1, 1, 1, 1" offset="54084" size="4" />
			<output>
				<port id="0" precision="FP32">
					<dim>1</dim>
					<dim>1</dim>
					<dim>1</dim>
					<dim>1</dim>
				</port>
			</output>
		</layer>
		<layer id="341" name="PPQ_Operation_71" type="FakeQuantize" version="opset1">
			<data levels="256" auto_broadcast="numpy" />
			<input>
				<port id="0" precision="FP32">
					<dim>1</dim>
					<dim>88</dim>
					<dim>52</dim>
					<dim>52</dim>
				</port>
				<port id="1" precision="FP32">
					<dim>1</dim>
					<dim>1</dim>
					<dim>1</dim>
					<dim>1</dim>
				</port>
				<port id="2" precision="FP32">
					<dim>1</dim>
					<dim>1</dim>
					<dim>1</dim>
					<dim>1</dim>
				</port>
				<port id="3" precision="FP32">
					<dim>1</dim>
					<dim>1</dim>
					<dim>1</dim>
					<dim>1</dim>
				</port>
				<port id="4" precision="FP32">
					<dim>1</dim>
					<dim>1</dim>
					<dim>1</dim>
					<dim>1</dim>
				</port>
			</input>
			<output>
				<port id="5" precision="FP32" names="/backbone/stage2/stage2.3/Slice_1_output_0">
					<dim>1</dim>
					<dim>88</dim>
					<dim>52</dim>
					<dim>52</dim>
				</port>
			</output>
		</layer>
		<layer id="342" name="onnx::Conv_1569" type="Const" version="opset1">
			<data element_type="i8" shape="88, 88, 1, 1" offset="54088" size="7744" />
			<output>
				<port id="0" precision="I8" names="onnx::Conv_1569">
					<dim>88</dim>
					<dim>88</dim>
					<dim>1</dim>
					<dim>1</dim>
				</port>
			</output>
		</layer>
		<layer id="343" name="Convert_1812" type="Convert" version="opset1">
			<data destination_type="f32" />
			<input>
				<port id="0" precision="I8">
					<dim>88</dim>
					<dim>88</dim>
					<dim>1</dim>
					<dim>1</dim>
				</port>
			</input>
			<output>
				<port id="1" precision="FP32">
					<dim>88</dim>
					<dim>88</dim>
					<dim>1</dim>
					<dim>1</dim>
				</port>
			</output>
		</layer>
		<layer id="344" name="Reshape_1806" type="Const" version="opset1">
			<data element_type="f32" shape="88, 1, 1, 1" offset="61832" size="352" />
			<output>
				<port id="0" precision="FP32">
					<dim>88</dim>
					<dim>1</dim>
					<dim>1</dim>
					<dim>1</dim>
				</port>
			</output>
		</layer>
		<layer id="345" name="PPQ_Operation_72" type="Multiply" version="opset1">
			<data auto_broadcast="numpy" />
			<input>
				<port id="0" precision="FP32">
					<dim>88</dim>
					<dim>88</dim>
					<dim>1</dim>
					<dim>1</dim>
				</port>
				<port id="1" precision="FP32">
					<dim>88</dim>
					<dim>1</dim>
					<dim>1</dim>
					<dim>1</dim>
				</port>
			</input>
			<output>
				<port id="2" precision="FP32" names="PPQ_Variable_336">
					<dim>88</dim>
					<dim>88</dim>
					<dim>1</dim>
					<dim>1</dim>
				</port>
			</output>
		</layer>
		<layer id="346" name="/backbone/stage2/stage2.3/branch2/branch2.0/Conv/WithoutBiases" type="Convolution" version="opset1">
			<data strides="1, 1" dilations="1, 1" pads_begin="0, 0" pads_end="0, 0" auto_pad="explicit" />
			<input>
				<port id="0" precision="FP32">
					<dim>1</dim>
					<dim>88</dim>
					<dim>52</dim>
					<dim>52</dim>
				</port>
				<port id="1" precision="FP32">
					<dim>88</dim>
					<dim>88</dim>
					<dim>1</dim>
					<dim>1</dim>
				</port>
			</input>
			<output>
				<port id="2" precision="FP32">
					<dim>1</dim>
					<dim>88</dim>
					<dim>52</dim>
					<dim>52</dim>
				</port>
			</output>
		</layer>
		<layer id="347" name="Reshape_6145" type="Const" version="opset1">
			<data element_type="f32" shape="1, 88, 1, 1" offset="62184" size="352" />
			<output>
				<port id="0" precision="FP32">
					<dim>1</dim>
					<dim>88</dim>
					<dim>1</dim>
					<dim>1</dim>
				</port>
			</output>
		</layer>
		<layer id="348" name="/backbone/stage2/stage2.3/branch2/branch2.0/Conv" type="Add" version="opset1">
			<data auto_broadcast="numpy" />
			<input>
				<port id="0" precision="FP32">
					<dim>1</dim>
					<dim>88</dim>
					<dim>52</dim>
					<dim>52</dim>
				</port>
				<port id="1" precision="FP32">
					<dim>1</dim>
					<dim>88</dim>
					<dim>1</dim>
					<dim>1</dim>
				</port>
			</input>
			<output>
				<port id="2" precision="FP32" names="PPQ_Variable_339">
					<dim>1</dim>
					<dim>88</dim>
					<dim>52</dim>
					<dim>52</dim>
				</port>
			</output>
		</layer>
		<layer id="349" name="Constant_63364" type="Const" version="opset1">
			<data element_type="f32" shape="1, 1, 1, 1" offset="62536" size="4" />
			<output>
				<port id="0" precision="FP32">
					<dim>1</dim>
					<dim>1</dim>
					<dim>1</dim>
					<dim>1</dim>
				</port>
			</output>
		</layer>
		<layer id="350" name="Constant_63365" type="Const" version="opset1">
			<data element_type="f32" shape="1, 1, 1, 1" offset="62540" size="4" />
			<output>
				<port id="0" precision="FP32">
					<dim>1</dim>
					<dim>1</dim>
					<dim>1</dim>
					<dim>1</dim>
				</port>
			</output>
		</layer>
		<layer id="351" name="Constant_63366" type="Const" version="opset1">
			<data element_type="f32" shape="1, 1, 1, 1" offset="62536" size="4" />
			<output>
				<port id="0" precision="FP32">
					<dim>1</dim>
					<dim>1</dim>
					<dim>1</dim>
					<dim>1</dim>
				</port>
			</output>
		</layer>
		<layer id="352" name="Constant_63367" type="Const" version="opset1">
			<data element_type="f32" shape="1, 1, 1, 1" offset="62540" size="4" />
			<output>
				<port id="0" precision="FP32">
					<dim>1</dim>
					<dim>1</dim>
					<dim>1</dim>
					<dim>1</dim>
				</port>
			</output>
		</layer>
		<layer id="353" name="PPQ_Operation_74" type="FakeQuantize" version="opset1">
			<data levels="256" auto_broadcast="numpy" />
			<input>
				<port id="0" precision="FP32">
					<dim>1</dim>
					<dim>88</dim>
					<dim>52</dim>
					<dim>52</dim>
				</port>
				<port id="1" precision="FP32">
					<dim>1</dim>
					<dim>1</dim>
					<dim>1</dim>
					<dim>1</dim>
				</port>
				<port id="2" precision="FP32">
					<dim>1</dim>
					<dim>1</dim>
					<dim>1</dim>
					<dim>1</dim>
				</port>
				<port id="3" precision="FP32">
					<dim>1</dim>
					<dim>1</dim>
					<dim>1</dim>
					<dim>1</dim>
				</port>
				<port id="4" precision="FP32">
					<dim>1</dim>
					<dim>1</dim>
					<dim>1</dim>
					<dim>1</dim>
				</port>
			</input>
			<output>
				<port id="5" precision="FP32" names="/backbone/stage2/stage2.3/branch2/branch2.0/Conv_output_0">
					<dim>1</dim>
					<dim>88</dim>
					<dim>52</dim>
					<dim>52</dim>
				</port>
			</output>
		</layer>
		<layer id="354" name="Constant_6225" type="Const" version="opset1">
			<data element_type="f32" shape="1" offset="932" size="4" />
			<output>
				<port id="0" precision="FP32">
					<dim>1</dim>
				</port>
			</output>
		</layer>
		<layer id="355" name="/backbone/stage2/stage2.3/branch2/branch2.2/LeakyRelu" type="PReLU" version="opset1">
			<input>
				<port id="0" precision="FP32">
					<dim>1</dim>
					<dim>88</dim>
					<dim>52</dim>
					<dim>52</dim>
				</port>
				<port id="1" precision="FP32">
					<dim>1</dim>
				</port>
			</input>
			<output>
				<port id="2" precision="FP32" names="PPQ_Variable_345">
					<dim>1</dim>
					<dim>88</dim>
					<dim>52</dim>
					<dim>52</dim>
				</port>
			</output>
		</layer>
		<layer id="356" name="Constant_63368" type="Const" version="opset1">
			<data element_type="f32" shape="1, 1, 1, 1" offset="62544" size="4" />
			<output>
				<port id="0" precision="FP32">
					<dim>1</dim>
					<dim>1</dim>
					<dim>1</dim>
					<dim>1</dim>
				</port>
			</output>
		</layer>
		<layer id="357" name="Constant_63369" type="Const" version="opset1">
			<data element_type="f32" shape="1, 1, 1, 1" offset="62548" size="4" />
			<output>
				<port id="0" precision="FP32">
					<dim>1</dim>
					<dim>1</dim>
					<dim>1</dim>
					<dim>1</dim>
				</port>
			</output>
		</layer>
		<layer id="358" name="Constant_63370" type="Const" version="opset1">
			<data element_type="f32" shape="1, 1, 1, 1" offset="62544" size="4" />
			<output>
				<port id="0" precision="FP32">
					<dim>1</dim>
					<dim>1</dim>
					<dim>1</dim>
					<dim>1</dim>
				</port>
			</output>
		</layer>
		<layer id="359" name="Constant_63371" type="Const" version="opset1">
			<data element_type="f32" shape="1, 1, 1, 1" offset="62548" size="4" />
			<output>
				<port id="0" precision="FP32">
					<dim>1</dim>
					<dim>1</dim>
					<dim>1</dim>
					<dim>1</dim>
				</port>
			</output>
		</layer>
		<layer id="360" name="PPQ_Operation_76" type="FakeQuantize" version="opset1">
			<data levels="256" auto_broadcast="numpy" />
			<input>
				<port id="0" precision="FP32">
					<dim>1</dim>
					<dim>88</dim>
					<dim>52</dim>
					<dim>52</dim>
				</port>
…
		<edge from-layer="2120" from-port="0" to-layer="2121" to-port="0" />
		<edge from-layer="2121" from-port="1" to-layer="2123" to-port="0" />
		<edge from-layer="2122" from-port="0" to-layer="2123" to-port="1" />
		<edge from-layer="2123" from-port="2" to-layer="2131" to-port="0" />
		<edge from-layer="2123" from-port="2" to-layer="2125" to-port="0" />
		<edge from-layer="2124" from-port="0" to-layer="2129" to-port="1" />
		<edge from-layer="2124" from-port="0" to-layer="2130" to-port="0" />
		<edge from-layer="2125" from-port="1" to-layer="2128" to-port="0" />
		<edge from-layer="2126" from-port="0" to-layer="2128" to-port="1" />
		<edge from-layer="2127" from-port="0" to-layer="2128" to-port="2" />
		<edge from-layer="2128" from-port="3" to-layer="2129" to-port="0" />
		<edge from-layer="2128" from-port="4" to-layer="2130" to-port="2" />
		<edge from-layer="2129" from-port="2" to-layer="2130" to-port="1" />
		<edge from-layer="2130" from-port="3" to-layer="2131" to-port="1" />
		<edge from-layer="2131" from-port="2" to-layer="2132" to-port="1" />
		<edge from-layer="2132" from-port="2" to-layer="2134" to-port="0" />
		<edge from-layer="2133" from-port="0" to-layer="2134" to-port="1" />
		<edge from-layer="2134" from-port="2" to-layer="2139" to-port="0" />
		<edge from-layer="2135" from-port="0" to-layer="2139" to-port="1" />
		<edge from-layer="2136" from-port="0" to-layer="2139" to-port="2" />
		<edge from-layer="2137" from-port="0" to-layer="2139" to-port="3" />
		<edge from-layer="2138" from-port="0" to-layer="2139" to-port="4" />
		<edge from-layer="2139" from-port="5" to-layer="2144" to-port="0" />
		<edge from-layer="2140" from-port="0" to-layer="2141" to-port="0" />
		<edge from-layer="2141" from-port="1" to-layer="2143" to-port="0" />
		<edge from-layer="2142" from-port="0" to-layer="2143" to-port="1" />
		<edge from-layer="2143" from-port="2" to-layer="2144" to-port="1" />
		<edge from-layer="2144" from-port="2" to-layer="2146" to-port="0" />
		<edge from-layer="2145" from-port="0" to-layer="2146" to-port="1" />
		<edge from-layer="2146" from-port="2" to-layer="2151" to-port="0" />
		<edge from-layer="2147" from-port="0" to-layer="2151" to-port="1" />
		<edge from-layer="2148" from-port="0" to-layer="2151" to-port="2" />
		<edge from-layer="2149" from-port="0" to-layer="2151" to-port="3" />
		<edge from-layer="2150" from-port="0" to-layer="2151" to-port="4" />
		<edge from-layer="2151" from-port="5" to-layer="2152" to-port="1" />
		<edge from-layer="2152" from-port="2" to-layer="2157" to-port="0" />
		<edge from-layer="2153" from-port="0" to-layer="2157" to-port="1" />
		<edge from-layer="2154" from-port="0" to-layer="2157" to-port="2" />
		<edge from-layer="2155" from-port="0" to-layer="2157" to-port="3" />
		<edge from-layer="2156" from-port="0" to-layer="2157" to-port="4" />
		<edge from-layer="2157" from-port="5" to-layer="2281" to-port="0" />
		<edge from-layer="2157" from-port="5" to-layer="2170" to-port="0" />
		<edge from-layer="2158" from-port="0" to-layer="2159" to-port="0" />
		<edge from-layer="2159" from-port="1" to-layer="2161" to-port="0" />
		<edge from-layer="2160" from-port="0" to-layer="2161" to-port="1" />
		<edge from-layer="2161" from-port="2" to-layer="2163" to-port="0" />
		<edge from-layer="2161" from-port="2" to-layer="2169" to-port="0" />
		<edge from-layer="2162" from-port="0" to-layer="2167" to-port="1" />
		<edge from-layer="2162" from-port="0" to-layer="2168" to-port="0" />
		<edge from-layer="2163" from-port="1" to-layer="2166" to-port="0" />
		<edge from-layer="2164" from-port="0" to-layer="2166" to-port="1" />
		<edge from-layer="2165" from-port="0" to-layer="2166" to-port="2" />
		<edge from-layer="2166" from-port="4" to-layer="2168" to-port="2" />
		<edge from-layer="2166" from-port="3" to-layer="2167" to-port="0" />
		<edge from-layer="2167" from-port="2" to-layer="2168" to-port="1" />
		<edge from-layer="2168" from-port="3" to-layer="2169" to-port="1" />
		<edge from-layer="2169" from-port="2" to-layer="2170" to-port="1" />
		<edge from-layer="2170" from-port="2" to-layer="2172" to-port="0" />
		<edge from-layer="2171" from-port="0" to-layer="2172" to-port="1" />
		<edge from-layer="2172" from-port="2" to-layer="2177" to-port="0" />
		<edge from-layer="2173" from-port="0" to-layer="2177" to-port="1" />
		<edge from-layer="2174" from-port="0" to-layer="2177" to-port="2" />
		<edge from-layer="2175" from-port="0" to-layer="2177" to-port="3" />
		<edge from-layer="2176" from-port="0" to-layer="2177" to-port="4" />
		<edge from-layer="2177" from-port="5" to-layer="2179" to-port="0" />
		<edge from-layer="2178" from-port="0" to-layer="2179" to-port="1" />
		<edge from-layer="2179" from-port="2" to-layer="2184" to-port="0" />
		<edge from-layer="2180" from-port="0" to-layer="2184" to-port="1" />
		<edge from-layer="2181" from-port="0" to-layer="2184" to-port="2" />
		<edge from-layer="2182" from-port="0" to-layer="2184" to-port="3" />
		<edge from-layer="2183" from-port="0" to-layer="2184" to-port="4" />
		<edge from-layer="2184" from-port="5" to-layer="2189" to-port="0" />
		<edge from-layer="2185" from-port="0" to-layer="2186" to-port="0" />
		<edge from-layer="2186" from-port="1" to-layer="2188" to-port="0" />
		<edge from-layer="2187" from-port="0" to-layer="2188" to-port="1" />
		<edge from-layer="2188" from-port="2" to-layer="2189" to-port="1" />
		<edge from-layer="2189" from-port="2" to-layer="2191" to-port="0" />
		<edge from-layer="2190" from-port="0" to-layer="2191" to-port="1" />
		<edge from-layer="2191" from-port="2" to-layer="2196" to-port="0" />
		<edge from-layer="2192" from-port="0" to-layer="2196" to-port="1" />
		<edge from-layer="2193" from-port="0" to-layer="2196" to-port="2" />
		<edge from-layer="2194" from-port="0" to-layer="2196" to-port="3" />
		<edge from-layer="2195" from-port="0" to-layer="2196" to-port="4" />
		<edge from-layer="2196" from-port="5" to-layer="2198" to-port="0" />
		<edge from-layer="2197" from-port="0" to-layer="2198" to-port="1" />
		<edge from-layer="2198" from-port="2" to-layer="2203" to-port="0" />
		<edge from-layer="2199" from-port="0" to-layer="2203" to-port="1" />
		<edge from-layer="2200" from-port="0" to-layer="2203" to-port="2" />
		<edge from-layer="2201" from-port="0" to-layer="2203" to-port="3" />
		<edge from-layer="2202" from-port="0" to-layer="2203" to-port="4" />
		<edge from-layer="2203" from-port="5" to-layer="2216" to-port="0" />
		<edge from-layer="2204" from-port="0" to-layer="2205" to-port="0" />
		<edge from-layer="2205" from-port="1" to-layer="2207" to-port="0" />
		<edge from-layer="2206" from-port="0" to-layer="2207" to-port="1" />
		<edge from-layer="2207" from-port="2" to-layer="2209" to-port="0" />
		<edge from-layer="2207" from-port="2" to-layer="2215" to-port="0" />
		<edge from-layer="2208" from-port="0" to-layer="2213" to-port="1" />
		<edge from-layer="2208" from-port="0" to-layer="2214" to-port="0" />
		<edge from-layer="2209" from-port="1" to-layer="2212" to-port="0" />
		<edge from-layer="2210" from-port="0" to-layer="2212" to-port="1" />
		<edge from-layer="2211" from-port="0" to-layer="2212" to-port="2" />
		<edge from-layer="2212" from-port="4" to-layer="2214" to-port="2" />
		<edge from-layer="2212" from-port="3" to-layer="2213" to-port="0" />
		<edge from-layer="2213" from-port="2" to-layer="2214" to-port="1" />
		<edge from-layer="2214" from-port="3" to-layer="2215" to-port="1" />
		<edge from-layer="2215" from-port="2" to-layer="2216" to-port="1" />
		<edge from-layer="2216" from-port="2" to-layer="2218" to-port="0" />
		<edge from-layer="2217" from-port="0" to-layer="2218" to-port="1" />
		<edge from-layer="2218" from-port="2" to-layer="2223" to-port="0" />
		<edge from-layer="2219" from-port="0" to-layer="2223" to-port="1" />
		<edge from-layer="2220" from-port="0" to-layer="2223" to-port="2" />
		<edge from-layer="2221" from-port="0" to-layer="2223" to-port="3" />
		<edge from-layer="2222" from-port="0" to-layer="2223" to-port="4" />
		<edge from-layer="2223" from-port="5" to-layer="2225" to-port="0" />
		<edge from-layer="2224" from-port="0" to-layer="2225" to-port="1" />
		<edge from-layer="2225" from-port="2" to-layer="2230" to-port="0" />
		<edge from-layer="2226" from-port="0" to-layer="2230" to-port="1" />
		<edge from-layer="2227" from-port="0" to-layer="2230" to-port="2" />
		<edge from-layer="2228" from-port="0" to-layer="2230" to-port="3" />
		<edge from-layer="2229" from-port="0" to-layer="2230" to-port="4" />
		<edge from-layer="2230" from-port="5" to-layer="2235" to-port="0" />
		<edge from-layer="2231" from-port="0" to-layer="2232" to-port="0" />
		<edge from-layer="2232" from-port="1" to-layer="2234" to-port="0" />
		<edge from-layer="2233" from-port="0" to-layer="2234" to-port="1" />
		<edge from-layer="2234" from-port="2" to-layer="2235" to-port="1" />
		<edge from-layer="2235" from-port="2" to-layer="2237" to-port="0" />
		<edge from-layer="2236" from-port="0" to-layer="2237" to-port="1" />
		<edge from-layer="2237" from-port="2" to-layer="2242" to-port="0" />
		<edge from-layer="2238" from-port="0" to-layer="2242" to-port="1" />
		<edge from-layer="2239" from-port="0" to-layer="2242" to-port="2" />
		<edge from-layer="2240" from-port="0" to-layer="2242" to-port="3" />
		<edge from-layer="2241" from-port="0" to-layer="2242" to-port="4" />
		<edge from-layer="2242" from-port="5" to-layer="2244" to-port="0" />
		<edge from-layer="2243" from-port="0" to-layer="2244" to-port="1" />
		<edge from-layer="2244" from-port="2" to-layer="2249" to-port="0" />
		<edge from-layer="2245" from-port="0" to-layer="2249" to-port="1" />
		<edge from-layer="2246" from-port="0" to-layer="2249" to-port="2" />
		<edge from-layer="2247" from-port="0" to-layer="2249" to-port="3" />
		<edge from-layer="2248" from-port="0" to-layer="2249" to-port="4" />
		<edge from-layer="2249" from-port="5" to-layer="2254" to-port="0" />
		<edge from-layer="2250" from-port="0" to-layer="2251" to-port="0" />
		<edge from-layer="2251" from-port="1" to-layer="2253" to-port="0" />
		<edge from-layer="2252" from-port="0" to-layer="2253" to-port="1" />
		<edge from-layer="2253" from-port="2" to-layer="2254" to-port="1" />
		<edge from-layer="2254" from-port="2" to-layer="2256" to-port="0" />
		<edge from-layer="2255" from-port="0" to-layer="2256" to-port="1" />
		<edge from-layer="2256" from-port="2" to-layer="2261" to-port="0" />
		<edge from-layer="2257" from-port="0" to-layer="2261" to-port="1" />
		<edge from-layer="2258" from-port="0" to-layer="2261" to-port="2" />
		<edge from-layer="2259" from-port="0" to-layer="2261" to-port="3" />
		<edge from-layer="2260" from-port="0" to-layer="2261" to-port="4" />
		<edge from-layer="2261" from-port="5" to-layer="2264" to-port="0" />
		<edge from-layer="2262" from-port="0" to-layer="2264" to-port="1" />
		<edge from-layer="2263" from-port="0" to-layer="2264" to-port="2" />
		<edge from-layer="2264" from-port="3" to-layer="2265" to-port="0" />
		<edge from-layer="2264" from-port="4" to-layer="2266" to-port="1" />
		<edge from-layer="2265" from-port="1" to-layer="2266" to-port="0" />
		<edge from-layer="2266" from-port="2" to-layer="2268" to-port="0" />
		<edge from-layer="2267" from-port="0" to-layer="2268" to-port="1" />
		<edge from-layer="2268" from-port="2" to-layer="2769" to-port="1" />
		<edge from-layer="2269" from-port="0" to-layer="2270" to-port="0" />
		<edge from-layer="2270" from-port="1" to-layer="2272" to-port="0" />
		<edge from-layer="2271" from-port="0" to-layer="2272" to-port="1" />
		<edge from-layer="2272" from-port="2" to-layer="2280" to-port="0" />
		<edge from-layer="2272" from-port="2" to-layer="2274" to-port="0" />
		<edge from-layer="2273" from-port="0" to-layer="2278" to-port="1" />
		<edge from-layer="2273" from-port="0" to-layer="2279" to-port="0" />
		<edge from-layer="2274" from-port="1" to-layer="2277" to-port="0" />
		<edge from-layer="2275" from-port="0" to-layer="2277" to-port="1" />
		<edge from-layer="2276" from-port="0" to-layer="2277" to-port="2" />
		<edge from-layer="2277" from-port="4" to-layer="2279" to-port="2" />
		<edge from-layer="2277" from-port="3" to-layer="2278" to-port="0" />
		<edge from-layer="2278" from-port="2" to-layer="2279" to-port="1" />
		<edge from-layer="2279" from-port="3" to-layer="2280" to-port="1" />
		<edge from-layer="2280" from-port="2" to-layer="2281" to-port="1" />
		<edge from-layer="2281" from-port="2" to-layer="2283" to-port="0" />
		<edge from-layer="2282" from-port="0" to-layer="2283" to-port="1" />
		<edge from-layer="2283" from-port="2" to-layer="2288" to-port="0" />
		<edge from-layer="2284" from-port="0" to-layer="2288" to-port="1" />
		<edge from-layer="2285" from-port="0" to-layer="2288" to-port="2" />
		<edge from-layer="2286" from-port="0" to-layer="2288" to-port="3" />
		<edge from-layer="2287" from-port="0" to-layer="2288" to-port="4" />
		<edge from-layer="2288" from-port="5" to-layer="2290" to-port="0" />
		<edge from-layer="2289" from-port="0" to-layer="2290" to-port="1" />
		<edge from-layer="2290" from-port="2" to-layer="2295" to-port="0" />
		<edge from-layer="2291" from-port="0" to-layer="2295" to-port="1" />
		<edge from-layer="2292" from-port="0" to-layer="2295" to-port="2" />
		<edge from-layer="2293" from-port="0" to-layer="2295" to-port="3" />
		<edge from-layer="2294" from-port="0" to-layer="2295" to-port="4" />
		<edge from-layer="2295" from-port="5" to-layer="2300" to-port="0" />
		<edge from-layer="2296" from-port="0" to-layer="2297" to-port="0" />
		<edge from-layer="2297" from-port="1" to-layer="2299" to-port="0" />
		<edge from-layer="2298" from-port="0" to-layer="2299" to-port="1" />
		<edge from-layer="2299" from-port="2" to-layer="2300" to-port="1" />
		<edge from-layer="2300" from-port="2" to-layer="2302" to-port="0" />
		<edge from-layer="2301" from-port="0" to-layer="2302" to-port="1" />
		<edge from-layer="2302" from-port="2" to-layer="2307" to-port="0" />
		<edge from-layer="2303" from-port="0" to-layer="2307" to-port="1" />
		<edge from-layer="2304" from-port="0" to-layer="2307" to-port="2" />
		<edge from-layer="2305" from-port="0" to-layer="2307" to-port="3" />
		<edge from-layer="2306" from-port="0" to-layer="2307" to-port="4" />
		<edge from-layer="2307" from-port="5" to-layer="2309" to-port="0" />
		<edge from-layer="2308" from-port="0" to-layer="2309" to-port="1" />
		<edge from-layer="2309" from-port="2" to-layer="2314" to-port="0" />
		<edge from-layer="2310" from-port="0" to-layer="2314" to-port="1" />
		<edge from-layer="2311" from-port="0" to-layer="2314" to-port="2" />
		<edge from-layer="2312" from-port="0" to-layer="2314" to-port="3" />
		<edge from-layer="2313" from-port="0" to-layer="2314" to-port="4" />
		<edge from-layer="2314" from-port="5" to-layer="2315" to-port="0" />
		<edge from-layer="2315" from-port="2" to-layer="2320" to-port="0" />
		<edge from-layer="2316" from-port="0" to-layer="2320" to-port="1" />
		<edge from-layer="2317" from-port="0" to-layer="2320" to-port="2" />
		<edge from-layer="2318" from-port="0" to-layer="2320" to-port="3" />
		<edge from-layer="2319" from-port="0" to-layer="2320" to-port="4" />
		<edge from-layer="2320" from-port="5" to-layer="2423" to-port="0" />
		<edge from-layer="2320" from-port="5" to-layer="2325" to-port="0" />
		<edge from-layer="2321" from-port="0" to-layer="2322" to-port="0" />
		<edge from-layer="2322" from-port="1" to-layer="2324" to-port="0" />
		<edge from-layer="2323" from-port="0" to-layer="2324" to-port="1" />
		<edge from-layer="2324" from-port="2" to-layer="2325" to-port="1" />
		<edge from-layer="2325" from-port="2" to-layer="2327" to-port="0" />
		<edge from-layer="2326" from-port="0" to-layer="2327" to-port="1" />
		<edge from-layer="2327" from-port="2" to-layer="2332" to-port="0" />
		<edge from-layer="2328" from-port="0" to-layer="2332" to-port="1" />
		<edge from-layer="2329" from-port="0" to-layer="2332" to-port="2" />
		<edge from-layer="2330" from-port="0" to-layer="2332" to-port="3" />
		<edge from-layer="2331" from-port="0" to-layer="2332" to-port="4" />
		<edge from-layer="2332" from-port="5" to-layer="2334" to-port="0" />
		<edge from-layer="2333" from-port="0" to-layer="2334" to-port="1" />
		<edge from-layer="2334" from-port="2" to-layer="2339" to-port="0" />
		<edge from-layer="2335" from-port="0" to-layer="2339" to-port="1" />
		<edge from-layer="2336" from-port="0" to-layer="2339" to-port="2" />
		<edge from-layer="2337" from-port="0" to-layer="2339" to-port="3" />
		<edge from-layer="2338" from-port="0" to-layer="2339" to-port="4" />
		<edge from-layer="2339" from-port="5" to-layer="2367" to-port="0" />
		<edge from-layer="2339" from-port="5" to-layer="2352" to-port="0" />
		<edge from-layer="2340" from-port="0" to-layer="2341" to-port="0" />
		<edge from-layer="2341" from-port="1" to-layer="2343" to-port="0" />
		<edge from-layer="2342" from-port="0" to-layer="2343" to-port="1" />
		<edge from-layer="2343" from-port="2" to-layer="2351" to-port="0" />
		<edge from-layer="2343" from-port="2" to-layer="2345" to-port="0" />
		<edge from-layer="2344" from-port="0" to-layer="2349" to-port="1" />
		<edge from-layer="2344" from-port="0" to-layer="2350" to-port="0" />
		<edge from-layer="2345" from-port="1" to-layer="2348" to-port="0" />
		<edge from-layer="2346" from-port="0" to-layer="2348" to-port="1" />
		<edge from-layer="2347" from-port="0" to-layer="2348" to-port="2" />
		<edge from-layer="2348" from-port="3" to-layer="2349" to-port="0" />
		<edge from-layer="2348" from-port="4" to-layer="2350" to-port="2" />
		<edge from-layer="2349" from-port="2" to-layer="2350" to-port="1" />
		<edge from-layer="2350" from-port="3" to-layer="2351" to-port="1" />
		<edge from-layer="2351" from-port="2" to-layer="2352" to-port="1" />
		<edge from-layer="2352" from-port="2" to-layer="2354" to-port="0" />
		<edge from-layer="2353" from-port="0" to-layer="2354" to-port="1" />
		<edge from-layer="2354" from-port="2" to-layer="2359" to-port="0" />
		<edge from-layer="2355" from-port="0" to-layer="2359" to-port="1" />
		<edge from-layer="2356" from-port="0" to-layer="2359" to-port="2" />
		<edge from-layer="2357" from-port="0" to-layer="2359" to-port="3" />
		<edge from-layer="2358" from-port="0" to-layer="2359" to-port="4" />
		<edge from-layer="2359" from-port="5" to-layer="2361" to-port="0" />
		<edge from-layer="2360" from-port="0" to-layer="2361" to-port="1" />
		<edge from-layer="2361" from-port="2" to-layer="2366" to-port="0" />
		<edge from-layer="2362" from-port="0" to-layer="2366" to-port="1" />
		<edge from-layer="2363" from-port="0" to-layer="2366" to-port="2" />
		<edge from-layer="2364" from-port="0" to-layer="2366" to-port="3" />
		<edge from-layer="2365" from-port="0" to-layer="2366" to-port="4" />
		<edge from-layer="2366" from-port="5" to-layer="2367" to-port="1" />
		<edge from-layer="2367" from-port="2" to-layer="2372" to-port="0" />
		<edge from-layer="2368" from-port="0" to-layer="2372" to-port="1" />
		<edge from-layer="2369" from-port="0" to-layer="2372" to-port="2" />
		<edge from-layer="2370" from-port="0" to-layer="2372" to-port="3" />
		<edge from-layer="2371" from-port="0" to-layer="2372" to-port="4" />
		<edge from-layer="2372" from-port="5" to-layer="2377" to-port="0" />
		<edge from-layer="2373" from-port="0" to-layer="2374" to-port="0" />
		<edge from-layer="2374" from-port="1" to-layer="2376" to-port="0" />
		<edge from-layer="2375" from-port="0" to-layer="2376" to-port="1" />
		<edge from-layer="2376" from-port="2" to-layer="2377" to-port="1" />
		<edge from-layer="2377" from-port="2" to-layer="2379" to-port="0" />
		<edge from-layer="2378" from-port="0" to-layer="2379" to-port="1" />
		<edge from-layer="2379" from-port="2" to-layer="2384" to-port="0" />
		<edge from-layer="2380" from-port="0" to-layer="2384" to-port="1" />
		<edge from-layer="2381" from-port="0" to-layer="2384" to-port="2" />
		<edge from-layer="2382" from-port="0" to-layer="2384" to-port="3" />
		<edge from-layer="2383" from-port="0" to-layer="2384" to-port="4" />
		<edge from-layer="2384" from-port="5" to-layer="2405" to-port="0" />
		<edge from-layer="2384" from-port="5" to-layer="2397" to-port="0" />
		<edge from-layer="2385" from-port="0" to-layer="2386" to-port="0" />
		<edge from-layer="2386" from-port="1" to-layer="2388" to-port="0" />
		<edge from-layer="2387" from-port="0" to-layer="2388" to-port="1" />
		<edge from-layer="2388" from-port="2" to-layer="2396" to-port="0" />
		<edge from-layer="2388" from-port="2" to-layer="2390" to-port="0" />
		<edge from-layer="2389" from-port="0" to-layer="2394" to-port="1" />
		<edge from-layer="2389" from-port="0" to-layer="2395" to-port="0" />
		<edge from-layer="2390" from-port="1" to-layer="2393" to-port="0" />
		<edge from-layer="2391" from-port="0" to-layer="2393" to-port="1" />
		<edge from-layer="2392" from-port="0" to-layer="2393" to-port="2" />
		<edge from-layer="2393" from-port="3" to-layer="2394" to-port="0" />
		<edge from-layer="2393" from-port="4" to-layer="2395" to-port="2" />
		<edge from-layer="2394" from-port="2" to-layer="2395" to-port="1" />
		<edge from-layer="2395" from-port="3" to-layer="2396" to-port="1" />
		<edge from-layer="2396" from-port="2" to-layer="2397" to-port="1" />
		<edge from-layer="2397" from-port="2" to-layer="2399" to-port="0" />
		<edge from-layer="2398" from-port="0" to-layer="2399" to-port="1" />
		<edge from-layer="2399" from-port="2" to-layer="2404" to-port="0" />
		<edge from-layer="2400" from-port="0" to-layer="2404" to-port="1" />
		<edge from-layer="2401" from-port="0" to-layer="2404" to-port="2" />
		<edge from-layer="2402" from-port="0" to-layer="2404" to-port="3" />
		<edge from-layer="2403" from-port="0" to-layer="2404" to-port="4" />
		<edge from-layer="2404" from-port="5" to-layer="2405" to-port="1" />
		<edge from-layer="2405" from-port="2" to-layer="2410" to-port="0" />
		<edge from-layer="2406" from-port="0" to-layer="2410" to-port="1" />
		<edge from-layer="2407" from-port="0" to-layer="2410" to-port="2" />
		<edge from-layer="2408" from-port="0" to-layer="2410" to-port="3" />
		<edge from-layer="2409" from-port="0" to-layer="2410" to-port="4" />
		<edge from-layer="2410" from-port="5" to-layer="2443" to-port="0" />
		<edge from-layer="2411" from-port="0" to-layer="2412" to-port="0" />
		<edge from-layer="2412" from-port="1" to-layer="2414" to-port="0" />
		<edge from-layer="2413" from-port="0" to-layer="2414" to-port="1" />
		<edge from-layer="2414" from-port="2" to-layer="2422" to-port="0" />
		<edge from-layer="2414" from-port="2" to-layer="2416" to-port="0" />
		<edge from-layer="2415" from-port="0" to-layer="2420" to-port="1" />
		<edge from-layer="2415" from-port="0" to-layer="2421" to-port="0" />
		<edge from-layer="2416" from-port="1" to-layer="2419" to-port="0" />
		<edge from-layer="2417" from-port="0" to-layer="2419" to-port="1" />
		<edge from-layer="2418" from-port="0" to-layer="2419" to-port="2" />
		<edge from-layer="2419" from-port="4" to-layer="2421" to-port="2" />
		<edge from-layer="2419" from-port="3" to-layer="2420" to-port="0" />
		<edge from-layer="2420" from-port="2" to-layer="2421" to-port="1" />
		<edge from-layer="2421" from-port="3" to-layer="2422" to-port="1" />
		<edge from-layer="2422" from-port="2" to-layer="2423" to-port="1" />
		<edge from-layer="2423" from-port="2" to-layer="2425" to-port="0" />
		<edge from-layer="2424" from-port="0" to-layer="2425" to-port="1" />
		<edge from-layer="2425" from-port="2" to-layer="2430" to-port="0" />
		<edge from-layer="2426" from-port="0" to-layer="2430" to-port="1" />
		<edge from-layer="2427" from-port="0" to-layer="2430" to-port="2" />
		<edge from-layer="2428" from-port="0" to-layer="2430" to-port="3" />
		<edge from-layer="2429" from-port="0" to-layer="2430" to-port="4" />
		<edge from-layer="2430" from-port="5" to-layer="2435" to-port="0" />
		<edge from-layer="2431" from-port="0" to-layer="2432" to-port="0" />
		<edge from-layer="2432" from-port="1" to-layer="2434" to-port="0" />
		<edge from-layer="2433" from-port="0" to-layer="2434" to-port="1" />
		<edge from-layer="2434" from-port="2" to-layer="2435" to-port="1" />
		<edge from-layer="2435" from-port="2" to-layer="2437" to-port="0" />
		<edge from-layer="2436" from-port="0" to-layer="2437" to-port="1" />
		<edge from-layer="2437" from-port="2" to-layer="2442" to-port="0" />
		<edge from-layer="2438" from-port="0" to-layer="2442" to-port="1" />
		<edge from-layer="2439" from-port="0" to-layer="2442" to-port="2" />
		<edge from-layer="2440" from-port="0" to-layer="2442" to-port="3" />
		<edge from-layer="2441" from-port="0" to-layer="2442" to-port="4" />
		<edge from-layer="2442" from-port="5" to-layer="2443" to-port="1" />
		<edge from-layer="2443" from-port="2" to-layer="2448" to-port="0" />
		<edge from-layer="2444" from-port="0" to-layer="2448" to-port="1" />
		<edge from-layer="2445" from-port="0" to-layer="2448" to-port="2" />
		<edge from-layer="2446" from-port="0" to-layer="2448" to-port="3" />
		<edge from-layer="2447" from-port="0" to-layer="2448" to-port="4" />
		<edge from-layer="2448" from-port="5" to-layer="2618" to-port="0" />
		<edge from-layer="2448" from-port="5" to-layer="2461" to-port="0" />
		<edge from-layer="2449" from-port="0" to-layer="2450" to-port="0" />
		<edge from-layer="2450" from-port="1" to-layer="2452" to-port="0" />
		<edge from-layer="2451" from-port="0" to-layer="2452" to-port="1" />
		<edge from-layer="2452" from-port="2" to-layer="2454" to-port="0" />
		<edge from-layer="2452" from-port="2" to-layer="2460" to-port="0" />
		<edge from-layer="2453" from-port="0" to-layer="2458" to-port="1" />
		<edge from-layer="2453" from-port="0" to-layer="2459" to-port="0" />
		<edge from-layer="2454" from-port="1" to-layer="2457" to-port="0" />
		<edge from-layer="2455" from-port="0" to-layer="2457" to-port="1" />
		<edge from-layer="2456" from-port="0" to-layer="2457" to-port="2" />
		<edge from-layer="2457" from-port="3" to-layer="2458" to-port="0" />
		<edge from-layer="2457" from-port="4" to-layer="2459" to-port="2" />
		<edge from-layer="2458" from-port="2" to-layer="2459" to-port="1" />
		<edge from-layer="2459" from-port="3" to-layer="2460" to-port="1" />
		<edge from-layer="2460" from-port="2" to-layer="2461" to-port="1" />
		<edge from-layer="2461" from-port="2" to-layer="2463" to-port="0" />
		<edge from-layer="2462" from-port="0" to-layer="2463" to-port="1" />
		<edge from-layer="2463" from-port="2" to-layer="2468" to-port="0" />
		<edge from-layer="2464" from-port="0" to-layer="2468" to-port="1" />
		<edge from-layer="2465" from-port="0" to-layer="2468" to-port="2" />
		<edge from-layer="2466" from-port="0" to-layer="2468" to-port="3" />
		<edge from-layer="2467" from-port="0" to-layer="2468" to-port="4" />
		<edge from-layer="2468" from-port="5" to-layer="2470" to-port="0" />
		<edge from-layer="2469" from-port="0" to-layer="2470" to-port="1" />
		<edge from-layer="2470" from-port="2" to-layer="2475" to-port="0" />
		<edge from-layer="2471" from-port="0" to-layer="2475" to-port="1" />
		<edge from-layer="2472" from-port="0" to-layer="2475" to-port="2" />
		<edge from-layer="2473" from-port="0" to-layer="2475" to-port="3" />
		<edge from-layer="2474" from-port="0" to-layer="2475" to-port="4" />
		<edge from-layer="2475" from-port="5" to-layer="2480" to-port="0" />
		<edge from-layer="2476" from-port="0" to-layer="2477" to-port="0" />
		<edge from-layer="2477" from-port="1" to-layer="2479" to-port="0" />
		<edge from-layer="2478" from-port="0" to-layer="2479" to-port="1" />
		<edge from-layer="2479" from-port="2" to-layer="2480" to-port="1" />
		<edge from-layer="2480" from-port="2" to-layer="2482" to-port="0" />
		<edge from-layer="2481" from-port="0" to-layer="2482" to-port="1" />
		<edge from-layer="2482" from-port="2" to-layer="2487" to-port="0" />
		<edge from-layer="2483" from-port="0" to-layer="2487" to-port="1" />
		<edge from-layer="2484" from-port="0" to-layer="2487" to-port="2" />
		<edge from-layer="2485" from-port="0" to-layer="2487" to-port="3" />
		<edge from-layer="2486" from-port="0" to-layer="2487" to-port="4" />
		<edge from-layer="2487" from-port="5" to-layer="2489" to-port="0" />
		<edge from-layer="2488" from-port="0" to-layer="2489" to-port="1" />
		<edge from-layer="2489" from-port="2" to-layer="2494" to-port="0" />
		<edge from-layer="2490" from-port="0" to-layer="2494" to-port="1" />
		<edge from-layer="2491" from-port="0" to-layer="2494" to-port="2" />
		<edge from-layer="2492" from-port="0" to-layer="2494" to-port="3" />
		<edge from-layer="2493" from-port="0" to-layer="2494" to-port="4" />
		<edge from-layer="2494" from-port="5" to-layer="2507" to-port="0" />
		<edge from-layer="2495" from-port="0" to-layer="2496" to-port="0" />
		<edge from-layer="2496" from-port="1" to-layer="2498" to-port="0" />
		<edge from-layer="2497" from-port="0" to-layer="2498" to-port="1" />
		<edge from-layer="2498" from-port="2" to-layer="2500" to-port="0" />
		<edge from-layer="2498" from-port="2" to-layer="2506" to-port="0" />
		<edge from-layer="2499" from-port="0" to-layer="2504" to-port="1" />
		<edge from-layer="2499" from-port="0" to-layer="2505" to-port="0" />
		<edge from-layer="2500" from-port="1" to-layer="2503" to-port="0" />
		<edge from-layer="2501" from-port="0" to-layer="2503" to-port="1" />
		<edge from-layer="2502" from-port="0" to-layer="2503" to-port="2" />
		<edge from-layer="2503" from-port="4" to-layer="2505" to-port="2" />
		<edge from-layer="2503" from-port="3" to-layer="2504" to-port="0" />
		<edge from-layer="2504" from-port="2" to-layer="2505" to-port="1" />
		<edge from-layer="2505" from-port="3" to-layer="2506" to-port="1" />
		<edge from-layer="2506" from-port="2" to-layer="2507" to-port="1" />
		<edge from-layer="2507" from-port="2" to-layer="2509" to-port="0" />
		<edge from-layer="2508" from-port="0" to-layer="2509" to-port="1" />
		<edge from-layer="2509" from-port="2" to-layer="2514" to-port="0" />
		<edge from-layer="2510" from-port="0" to-layer="2514" to-port="1" />
		<edge from-layer="2511" from-port="0" to-layer="2514" to-port="2" />
		<edge from-layer="2512" from-port="0" to-layer="2514" to-port="3" />
		<edge from-layer="2513" from-port="0" to-layer="2514" to-port="4" />
		<edge from-layer="2514" from-port="5" to-layer="2516" to-port="0" />
		<edge from-layer="2515" from-port="0" to-layer="2516" to-port="1" />
		<edge from-layer="2516" from-port="2" to-layer="2521" to-port="0" />
		<edge from-layer="2517" from-port="0" to-layer="2521" to-port="1" />
		<edge from-layer="2518" from-port="0" to-layer="2521" to-port="2" />
		<edge from-layer="2519" from-port="0" to-layer="2521" to-port="3" />
		<edge from-layer="2520" from-port="0" to-layer="2521" to-port="4" />
		<edge from-layer="2521" from-port="5" to-layer="2526" to-port="0" />
		<edge from-layer="2522" from-port="0" to-layer="2523" to-port="0" />
		<edge from-layer="2523" from-port="1" to-layer="2525" to-port="0" />
		<edge from-layer="2524" from-port="0" to-layer="2525" to-port="1" />
		<edge from-layer="2525" from-port="2" to-layer="2526" to-port="1" />
		<edge from-layer="2526" from-port="2" to-layer="2528" to-port="0" />
		<edge from-layer="2527" from-port="0" to-layer="2528" to-port="1" />
		<edge from-layer="2528" from-port="2" to-layer="2533" to-port="0" />
		<edge from-layer="2529" from-port="0" to-layer="2533" to-port="1" />
		<edge from-layer="2530" from-port="0" to-layer="2533" to-port="2" />
		<edge from-layer="2531" from-port="0" to-layer="2533" to-port="3" />
		<edge from-layer="2532" from-port="0" to-layer="2533" to-port="4" />
		<edge from-layer="2533" from-port="5" to-layer="2535" to-port="0" />
		<edge from-layer="2534" from-port="0" to-layer="2535" to-port="1" />
		<edge from-layer="2535" from-port="2" to-layer="2540" to-port="0" />
		<edge from-layer="2536" from-port="0" to-layer="2540" to-port="1" />
		<edge from-layer="2537" from-port="0" to-layer="2540" to-port="2" />
		<edge from-layer="2538" from-port="0" to-layer="2540" to-port="3" />
		<edge from-layer="2539" from-port="0" to-layer="2540" to-port="4" />
		<edge from-layer="2540" from-port="5" to-layer="2545" to-port="0" />
		<edge from-layer="2541" from-port="0" to-layer="2542" to-port="0" />
		<edge from-layer="2542" from-port="1" to-layer="2544" to-port="0" />
		<edge from-layer="2543" from-port="0" to-layer="2544" to-port="1" />
		<edge from-layer="2544" from-port="2" to-layer="2545" to-port="1" />
		<edge from-layer="2545" from-port="2" to-layer="2547" to-port="0" />
		<edge from-layer="2546" from-port="0" to-layer="2547" to-port="1" />
		<edge from-layer="2547" from-port="2" to-layer="2552" to-port="0" />
		<edge from-layer="2548" from-port="0" to-layer="2552" to-port="1" />
		<edge from-layer="2549" from-port="0" to-layer="2552" to-port="2" />
		<edge from-layer="2550" from-port="0" to-layer="2552" to-port="3" />
		<edge from-layer="2551" from-port="0" to-layer="2552" to-port="4" />
		<edge from-layer="2552" from-port="5" to-layer="2555" to-port="0" />
		<edge from-layer="2553" from-port="0" to-layer="2555" to-port="1" />
		<edge from-layer="2554" from-port="0" to-layer="2555" to-port="2" />
		<edge from-layer="2555" from-port="4" to-layer="2557" to-port="1" />
		<edge from-layer="2555" from-port="3" to-layer="2556" to-port="0" />
		<edge from-layer="2556" from-port="1" to-layer="2557" to-port="0" />
		<edge from-layer="2557" from-port="2" to-layer="2559" to-port="0" />
		<edge from-layer="2558" from-port="0" to-layer="2559" to-port="1" />
		<edge from-layer="2559" from-port="2" to-layer="2769" to-port="2" />
		<edge from-layer="2560" from-port="0" to-layer="2561" to-port="0" />
		<edge from-layer="2561" from-port="1" to-layer="2563" to-port="0" />
		<edge from-layer="2562" from-port="0" to-layer="2563" to-port="1" />
		<edge from-layer="2563" from-port="2" to-layer="2571" to-port="0" />
		<edge from-layer="2563" from-port="2" to-layer="2565" to-port="0" />
		<edge from-layer="2564" from-port="0" to-layer="2569" to-port="1" />
		<edge from-layer="2564" from-port="0" to-layer="2570" to-port="0" />
		<edge from-layer="2565" from-port="1" to-layer="2568" to-port="0" />
		<edge from-layer="2566" from-port="0" to-layer="2568" to-port="1" />
		<edge from-layer="2567" from-port="0" to-layer="2568" to-port="2" />
		<edge from-layer="2568" from-port="3" to-layer="2569" to-port="0" />
		<edge from-layer="2568" from-port="4" to-layer="2570" to-port="2" />
		<edge from-layer="2569" from-port="2" to-layer="2570" to-port="1" />
		<edge from-layer="2570" from-port="3" to-layer="2571" to-port="1" />
		<edge from-layer="2571" from-port="2" to-layer="2572" to-port="1" />
		<edge from-layer="2572" from-port="2" to-layer="2574" to-port="0" />
		<edge from-layer="2573" from-port="0" to-layer="2574" to-port="1" />
		<edge from-layer="2574" from-port="2" to-layer="2579" to-port="0" />
		<edge from-layer="2575" from-port="0" to-layer="2579" to-port="1" />
		<edge from-layer="2576" from-port="0" to-layer="2579" to-port="2" />
		<edge from-layer="2577" from-port="0" to-layer="2579" to-port="3" />
		<edge from-layer="2578" from-port="0" to-layer="2579" to-port="4" />
		<edge from-layer="2579" from-port="5" to-layer="2581" to-port="0" />
		<edge from-layer="2580" from-port="0" to-layer="2581" to-port="1" />
		<edge from-layer="2581" from-port="2" to-layer="2586" to-port="0" />
		<edge from-layer="2582" from-port="0" to-layer="2586" to-port="1" />
		<edge from-layer="2583" from-port="0" to-layer="2586" to-port="2" />
		<edge from-layer="2584" from-port="0" to-layer="2586" to-port="3" />
		<edge from-layer="2585" from-port="0" to-layer="2586" to-port="4" />
		<edge from-layer="2586" from-port="5" to-layer="2591" to-port="0" />
		<edge from-layer="2587" from-port="0" to-layer="2588" to-port="0" />
		<edge from-layer="2588" from-port="1" to-layer="2590" to-port="0" />
		<edge from-layer="2589" from-port="0" to-layer="2590" to-port="1" />
		<edge from-layer="2590" from-port="2" to-layer="2591" to-port="1" />
		<edge from-layer="2591" from-port="2" to-layer="2593" to-port="0" />
		<edge from-layer="2592" from-port="0" to-layer="2593" to-port="1" />
		<edge from-layer="2593" from-port="2" to-layer="2598" to-port="0" />
		<edge from-layer="2594" from-port="0" to-layer="2598" to-port="1" />
		<edge from-layer="2595" from-port="0" to-layer="2598" to-port="2" />
		<edge from-layer="2596" from-port="0" to-layer="2598" to-port="3" />
		<edge from-layer="2597" from-port="0" to-layer="2598" to-port="4" />
		<edge from-layer="2598" from-port="5" to-layer="2600" to-port="0" />
		<edge from-layer="2599" from-port="0" to-layer="2600" to-port="1" />
		<edge from-layer="2600" from-port="2" to-layer="2605" to-port="0" />
		<edge from-layer="2601" from-port="0" to-layer="2605" to-port="1" />
		<edge from-layer="2602" from-port="0" to-layer="2605" to-port="2" />
		<edge from-layer="2603" from-port="0" to-layer="2605" to-port="3" />
		<edge from-layer="2604" from-port="0" to-layer="2605" to-port="4" />
		<edge from-layer="2605" from-port="5" to-layer="2652" to-port="0" />
		<edge from-layer="2606" from-port="0" to-layer="2607" to-port="0" />
		<edge from-layer="2607" from-port="1" to-layer="2609" to-port="0" />
		<edge from-layer="2608" from-port="0" to-layer="2609" to-port="1" />
		<edge from-layer="2609" from-port="2" to-layer="2611" to-port="0" />
		<edge from-layer="2609" from-port="2" to-layer="2617" to-port="0" />
		<edge from-layer="2610" from-port="0" to-layer="2615" to-port="1" />
		<edge from-layer="2610" from-port="0" to-layer="2616" to-port="0" />
		<edge from-layer="2611" from-port="1" to-layer="2614" to-port="0" />
		<edge from-layer="2612" from-port="0" to-layer="2614" to-port="1" />
		<edge from-layer="2613" from-port="0" to-layer="2614" to-port="2" />
		<edge from-layer="2614" from-port="3" to-layer="2615" to-port="0" />
		<edge from-layer="2614" from-port="4" to-layer="2616" to-port="2" />
		<edge from-layer="2615" from-port="2" to-layer="2616" to-port="1" />
		<edge from-layer="2616" from-port="3" to-layer="2617" to-port="1" />
		<edge from-layer="2617" from-port="2" to-layer="2618" to-port="1" />
		<edge from-layer="2618" from-port="2" to-layer="2620" to-port="0" />
		<edge from-layer="2619" from-port="0" to-layer="2620" to-port="1" />
		<edge from-layer="2620" from-port="2" to-layer="2625" to-port="0" />
		<edge from-layer="2621" from-port="0" to-layer="2625" to-port="1" />
		<edge from-layer="2622" from-port="0" to-layer="2625" to-port="2" />
		<edge from-layer="2623" from-port="0" to-layer="2625" to-port="3" />
		<edge from-layer="2624" from-port="0" to-layer="2625" to-port="4" />
		<edge from-layer="2625" from-port="5" to-layer="2627" to-port="0" />
		<edge from-layer="2626" from-port="0" to-layer="2627" to-port="1" />
		<edge from-layer="2627" from-port="2" to-layer="2632" to-port="0" />
		<edge from-layer="2628" from-port="0" to-layer="2632" to-port="1" />
		<edge from-layer="2629" from-port="0" to-layer="2632" to-port="2" />
		<edge from-layer="2630" from-port="0" to-layer="2632" to-port="3" />
		<edge from-layer="2631" from-port="0" to-layer="2632" to-port="4" />
		<edge from-layer="2632" from-port="5" to-layer="2637" to-port="0" />
		<edge from-layer="2633" from-port="0" to-layer="2634" to-port="0" />
		<edge from-layer="2634" from-port="1" to-layer="2636" to-port="0" />
		<edge from-layer="2635" from-port="0" to-layer="2636" to-port="1" />
		<edge from-layer="2636" from-port="2" to-layer="2637" to-port="1" />
		<edge from-layer="2637" from-port="2" to-layer="2639" to-port="0" />
		<edge from-layer="2638" from-port="0" to-layer="2639" to-port="1" />
		<edge from-layer="2639" from-port="2" to-layer="2644" to-port="0" />
		<edge from-layer="2640" from-port="0" to-layer="2644" to-port="1" />
		<edge from-layer="2641" from-port="0" to-layer="2644" to-port="2" />
		<edge from-layer="2642" from-port="0" to-layer="2644" to-port="3" />
		<edge from-layer="2643" from-port="0" to-layer="2644" to-port="4" />
		<edge from-layer="2644" from-port="5" to-layer="2646" to-port="0" />
		<edge from-layer="2645" from-port="0" to-layer="2646" to-port="1" />
		<edge from-layer="2646" from-port="2" to-layer="2651" to-port="0" />
		<edge from-layer="2647" from-port="0" to-layer="2651" to-port="1" />
		<edge from-layer="2648" from-port="0" to-layer="2651" to-port="2" />
		<edge from-layer="2649" from-port="0" to-layer="2651" to-port="3" />
		<edge from-layer="2650" from-port="0" to-layer="2651" to-port="4" />
		<edge from-layer="2651" from-port="5" to-layer="2652" to-port="1" />
		<edge from-layer="2652" from-port="2" to-layer="2657" to-port="0" />
		<edge from-layer="2653" from-port="0" to-layer="2657" to-port="1" />
		<edge from-layer="2654" from-port="0" to-layer="2657" to-port="2" />
		<edge from-layer="2655" from-port="0" to-layer="2657" to-port="3" />
		<edge from-layer="2656" from-port="0" to-layer="2657" to-port="4" />
		<edge from-layer="2657" from-port="5" to-layer="2670" to-port="0" />
		<edge from-layer="2658" from-port="0" to-layer="2659" to-port="0" />
		<edge from-layer="2659" from-port="1" to-layer="2661" to-port="0" />
		<edge from-layer="2660" from-port="0" to-layer="2661" to-port="1" />
		<edge from-layer="2661" from-port="2" to-layer="2669" to-port="0" />
		<edge from-layer="2661" from-port="2" to-layer="2663" to-port="0" />
		<edge from-layer="2662" from-port="0" to-layer="2667" to-port="1" />
		<edge from-layer="2662" from-port="0" to-layer="2668" to-port="0" />
		<edge from-layer="2663" from-port="1" to-layer="2666" to-port="0" />
		<edge from-layer="2664" from-port="0" to-layer="2666" to-port="1" />
		<edge from-layer="2665" from-port="0" to-layer="2666" to-port="2" />
		<edge from-layer="2666" from-port="4" to-layer="2668" to-port="2" />
		<edge from-layer="2666" from-port="3" to-layer="2667" to-port="0" />
		<edge from-layer="2667" from-port="2" to-layer="2668" to-port="1" />
		<edge from-layer="2668" from-port="3" to-layer="2669" to-port="1" />
		<edge from-layer="2669" from-port="2" to-layer="2670" to-port="1" />
		<edge from-layer="2670" from-port="2" to-layer="2672" to-port="0" />
		<edge from-layer="2671" from-port="0" to-layer="2672" to-port="1" />
		<edge from-layer="2672" from-port="2" to-layer="2677" to-port="0" />
		<edge from-layer="2673" from-port="0" to-layer="2677" to-port="1" />
		<edge from-layer="2674" from-port="0" to-layer="2677" to-port="2" />
		<edge from-layer="2675" from-port="0" to-layer="2677" to-port="3" />
		<edge from-layer="2676" from-port="0" to-layer="2677" to-port="4" />
		<edge from-layer="2677" from-port="5" to-layer="2679" to-port="0" />
		<edge from-layer="2678" from-port="0" to-layer="2679" to-port="1" />
		<edge from-layer="2679" from-port="2" to-layer="2684" to-port="0" />
		<edge from-layer="2680" from-port="0" to-layer="2684" to-port="1" />
		<edge from-layer="2681" from-port="0" to-layer="2684" to-port="2" />
		<edge from-layer="2682" from-port="0" to-layer="2684" to-port="3" />
		<edge from-layer="2683" from-port="0" to-layer="2684" to-port="4" />
		<edge from-layer="2684" from-port="5" to-layer="2689" to-port="0" />
		<edge from-layer="2685" from-port="0" to-layer="2686" to-port="0" />
		<edge from-layer="2686" from-port="1" to-layer="2688" to-port="0" />
		<edge from-layer="2687" from-port="0" to-layer="2688" to-port="1" />
		<edge from-layer="2688" from-port="2" to-layer="2689" to-port="1" />
		<edge from-layer="2689" from-port="2" to-layer="2691" to-port="0" />
		<edge from-layer="2690" from-port="0" to-layer="2691" to-port="1" />
		<edge from-layer="2691" from-port="2" to-layer="2696" to-port="0" />
		<edge from-layer="2692" from-port="0" to-layer="2696" to-port="1" />
		<edge from-layer="2693" from-port="0" to-layer="2696" to-port="2" />
		<edge from-layer="2694" from-port="0" to-layer="2696" to-port="3" />
		<edge from-layer="2695" from-port="0" to-layer="2696" to-port="4" />
		<edge from-layer="2696" from-port="5" to-layer="2698" to-port="0" />
		<edge from-layer="2697" from-port="0" to-layer="2698" to-port="1" />
		<edge from-layer="2698" from-port="2" to-layer="2703" to-port="0" />
		<edge from-layer="2699" from-port="0" to-layer="2703" to-port="1" />
		<edge from-layer="2700" from-port="0" to-layer="2703" to-port="2" />
		<edge from-layer="2701" from-port="0" to-layer="2703" to-port="3" />
		<edge from-layer="2702" from-port="0" to-layer="2703" to-port="4" />
		<edge from-layer="2703" from-port="5" to-layer="2716" to-port="0" />
		<edge from-layer="2704" from-port="0" to-layer="2705" to-port="0" />
		<edge from-layer="2705" from-port="1" to-layer="2707" to-port="0" />
		<edge from-layer="2706" from-port="0" to-layer="2707" to-port="1" />
		<edge from-layer="2707" from-port="2" to-layer="2709" to-port="0" />
		<edge from-layer="2707" from-port="2" to-layer="2715" to-port="0" />
		<edge from-layer="2708" from-port="0" to-layer="2713" to-port="1" />
		<edge from-layer="2708" from-port="0" to-layer="2714" to-port="0" />
		<edge from-layer="2709" from-port="1" to-layer="2712" to-port="0" />
		<edge from-layer="2710" from-port="0" to-layer="2712" to-port="1" />
		<edge from-layer="2711" from-port="0" to-layer="2712" to-port="2" />
		<edge from-layer="2712" from-port="4" to-layer="2714" to-port="2" />
		<edge from-layer="2712" from-port="3" to-layer="2713" to-port="0" />
		<edge from-layer="2713" from-port="2" to-layer="2714" to-port="1" />
		<edge from-layer="2714" from-port="3" to-layer="2715" to-port="1" />
		<edge from-layer="2715" from-port="2" to-layer="2716" to-port="1" />
		<edge from-layer="2716" from-port="2" to-layer="2718" to-port="0" />
		<edge from-layer="2717" from-port="0" to-layer="2718" to-port="1" />
		<edge from-layer="2718" from-port="2" to-layer="2723" to-port="0" />
		<edge from-layer="2719" from-port="0" to-layer="2723" to-port="1" />
		<edge from-layer="2720" from-port="0" to-layer="2723" to-port="2" />
		<edge from-layer="2721" from-port="0" to-layer="2723" to-port="3" />
		<edge from-layer="2722" from-port="0" to-layer="2723" to-port="4" />
		<edge from-layer="2723" from-port="5" to-layer="2725" to-port="0" />
		<edge from-layer="2724" from-port="0" to-layer="2725" to-port="1" />
		<edge from-layer="2725" from-port="2" to-layer="2730" to-port="0" />
		<edge from-layer="2726" from-port="0" to-layer="2730" to-port="1" />
		<edge from-layer="2727" from-port="0" to-layer="2730" to-port="2" />
		<edge from-layer="2728" from-port="0" to-layer="2730" to-port="3" />
		<edge from-layer="2729" from-port="0" to-layer="2730" to-port="4" />
		<edge from-layer="2730" from-port="5" to-layer="2735" to-port="0" />
		<edge from-layer="2731" from-port="0" to-layer="2732" to-port="0" />
		<edge from-layer="2732" from-port="1" to-layer="2734" to-port="0" />
		<edge from-layer="2733" from-port="0" to-layer="2734" to-port="1" />
		<edge from-layer="2734" from-port="2" to-layer="2735" to-port="1" />
		<edge from-layer="2735" from-port="2" to-layer="2737" to-port="0" />
		<edge from-layer="2736" from-port="0" to-layer="2737" to-port="1" />
		<edge from-layer="2737" from-port="2" to-layer="2742" to-port="0" />
		<edge from-layer="2738" from-port="0" to-layer="2742" to-port="1" />
		<edge from-layer="2739" from-port="0" to-layer="2742" to-port="2" />
		<edge from-layer="2740" from-port="0" to-layer="2742" to-port="3" />
		<edge from-layer="2741" from-port="0" to-layer="2742" to-port="4" />
		<edge from-layer="2742" from-port="5" to-layer="2744" to-port="0" />
		<edge from-layer="2743" from-port="0" to-layer="2744" to-port="1" />
		<edge from-layer="2744" from-port="2" to-layer="2749" to-port="0" />
		<edge from-layer="2745" from-port="0" to-layer="2749" to-port="1" />
		<edge from-layer="2746" from-port="0" to-layer="2749" to-port="2" />
		<edge from-layer="2747" from-port="0" to-layer="2749" to-port="3" />
		<edge from-layer="2748" from-port="0" to-layer="2749" to-port="4" />
		<edge from-layer="2749" from-port="5" to-layer="2754" to-port="0" />
		<edge from-layer="2750" from-port="0" to-layer="2751" to-port="0" />
		<edge from-layer="2751" from-port="1" to-layer="2753" to-port="0" />
		<edge from-layer="2752" from-port="0" to-layer="2753" to-port="1" />
		<edge from-layer="2753" from-port="2" to-layer="2754" to-port="1" />
		<edge from-layer="2754" from-port="2" to-layer="2756" to-port="0" />
		<edge from-layer="2755" from-port="0" to-layer="2756" to-port="1" />
		<edge from-layer="2756" from-port="2" to-layer="2761" to-port="0" />
		<edge from-layer="2757" from-port="0" to-layer="2761" to-port="1" />
		<edge from-layer="2758" from-port="0" to-layer="2761" to-port="2" />
		<edge from-layer="2759" from-port="0" to-layer="2761" to-port="3" />
		<edge from-layer="2760" from-port="0" to-layer="2761" to-port="4" />
		<edge from-layer="2761" from-port="5" to-layer="2764" to-port="0" />
		<edge from-layer="2762" from-port="0" to-layer="2764" to-port="1" />
		<edge from-layer="2763" from-port="0" to-layer="2764" to-port="2" />
		<edge from-layer="2764" from-port="3" to-layer="2765" to-port="0" />
		<edge from-layer="2764" from-port="4" to-layer="2766" to-port="1" />
		<edge from-layer="2765" from-port="1" to-layer="2766" to-port="0" />
		<edge from-layer="2766" from-port="2" to-layer="2768" to-port="0" />
		<edge from-layer="2767" from-port="0" to-layer="2768" to-port="1" />
		<edge from-layer="2768" from-port="2" to-layer="2769" to-port="3" />
		<edge from-layer="2769" from-port="4" to-layer="2771" to-port="0" />
		<edge from-layer="2770" from-port="0" to-layer="2771" to-port="1" />
		<edge from-layer="2771" from-port="2" to-layer="2772" to-port="0" />
	</edges>
	<rt_info>
		<MO_version value="2022.3.0-9052-9752fafe8eb-releases/2022/3" />
		<Runtime_version value="2022.3.0-9052-9752fafe8eb-releases/2022/3" />
		<conversion_parameters>
			<framework value="onnx" />
			<input_model value="DIR/nanodet-1.5x-416-int8.onnx" />
			<model_name value="nanodet-1.5x-416-int8" />
		</conversion_parameters>
		<legacy_frontend value="False" />
	</rt_info>
</net>
